es_outputs/nn_from_s3/checkpoint_00100/top_k_models/rank_3_weights.npy (npy, 167552 bytes, 1 tensors)

array f8 [20928]
-0.0546792335975394 -0.2316660274976154 0.3478077309272899 0.5386826922435615 -0.5838902647785187 -0.24368648459613 0.17728740510607444 0.31502349741053526
0.04221408171133196 -0.11272075420223064 0.6707392605866667 0.3336294322024533 -0.20443700248152025 0.34175573658366365 0.42955552707318023 -0.36994483666051736
0.2122505243690174 0.08200061962103776 0.18756222664017444 0.21559771184511275 -0.11478187678106279 0.06470136232059304 0.337365361389989 0.16965172306317733
-0.13896785518463278 -0.4206663746213612 0.26932210610810936 0.24321552558474777 -0.2070153719489914 0.44880843260922154 0.9703355223192738 0.03581386590845388
-0.6065826353226204 -0.3848906386112354 0.2986593711469038 -0.27131829997223755 0.040981153274853785 -0.5978901760626417 0.017461681326367023 0.10487382417021619
-0.16248191599606884 0.2877617788453929 0.25659180666379866 -0.016588488238907066 -0.5796074341814824 -0.6416334920953641 0.3082416244099513 0.0070367844442551924
0.10367770730240702 0.6585929909267083 0.5388800334472229 0.34151262659460657 -0.39505005743901583 0.03358227046860647 0.06955724343633209 -0.521858654018942
-0.48880679671592664 0.5160616442353873 -0.0937323914526789 0.22195633973331164 -0.1029031199801228 -0.09850748918470602 0.020422180632507538 0.5028640810079797
0.4529598214181576 0.07634468833213282 -0.5840932238732676 -0.09214862847814698 0.2671439528560988 0.1970786144747492 -0.33097209425766333 -0.5766704352288102
-0.4305441562268393 0.7679010267832609 -0.4932892855406895 -0.126678752994602 0.0036587254528493707 0.29326189930810537 -0.38395376289740596 -0.21358785467736824
0.16841230463676682 -0.12250222100289897 -0.0617709953727368 -0.07883155488669416 0.1394591578922103 0.022204395548186345 0.4324234476395745 0.051893063202243475
0.019381558555283923 0.4589087180862971 0.06486267233905654 0.26331102800899014 0.177429052829727 -0.5019877458906593 -0.5120965190502138 -0.4344392559040712
-0.43916130667671416 -0.776564229307912 -0.5350860536080801 -0.5060662153655356 -0.2277192018708284 0.5654872746127003 -0.45928188801383957 0.4767177037932424
-0.09559637017414127 -0.0399571921503821 -0.1829440297681633 -0.10411879695250567 0.29248392069714246 -0.7641840121750687 -0.12605711953332976 -0.14020968979680487
0.044752186747769804 -0.11304850901727088 0.039211976643320635 -0.3222768229177369 -0.24775990715574397 -0.3784662595717793 0.5504488856826955 0.04037730072927341
-0.44293327538923777 0.24629743609607638 -0.254762304235409 0.4886941823622116 0.4245163813512598 0.3573031928692225 0.2193675372522998 -0.02613901755496173
-0.36540864910723564 -0.008535544418545829 -0.492943028299851 0.5160723542459134 -0.2732791579542462 -0.010279690880730481 0.2638405778711619 -0.08551062447755792
-0.46179801986792973 0.43595594793330833 -0.4137366562038866 -0.6532136659640853 -0.03272402343758881 -0.455538765514001 -0.08146531564110891 -0.23362079155941592
0.5257220915309075 0.36662846109312847 0.41848378383511603 0.5750877506267976 -0.08585981844370613 -0.22559726794069995 -0.39464482073032564 0.11696767921961977
-0.06308127692414506 0.17260700267740348 -0.35867874092818314 -0.5755909985825752 0.34898776566428 -0.20202827155880687 0.03592984635638055 0.08470284979230455
-0.3204023951416912 0.26063964514295923 -0.3745963775628959 -0.4011008109429935 -0.1662331127412033 0.585087231565671 0.20189203281853552 -0.3336653465564643
-0.34409547250560635 0.3944309591431719 -0.06597247908205066 0.16988728823897464 -0.13971067183609664 0.05830721295036366 -0.3604071914989717 -0.052203049883763925
0.08424488912393942 -0.40143739722674066 0.1472497292859875 0.41657540567466894 0.11875991282605537 -0.18783363264160552 0.20597847021347604 0.5229319252251153
-0.02630826809519364 -0.2911801670077808 -0.1875294202059694 -0.2412932538560609 -0.17929607726132477 -0.07937682985180482 -0.5164342220525442 -0.0981995136991742
0.028378397432231736 -0.2331981205619057 -0.09960913748135698 -0.5429497626466978 -0.19813040493707396 -0.1349134100695168 -0.047124786389449294 -0.5777183605209761
-0.31562899726912585 0.328205208533433 0.6947185309634984 -0.12489117470828126 -0.5061089460036785 -0.8623391729369648 0.020889895340081288 0.12104199510992678
0.16438627159975 0.03514960728051257 -0.5770810223425644 -0.09338456844171074 -0.22836359651584218 0.054279816195000274 0.2179920195614648 -0.4564451096748658
-0.3899685715327614 0.21114474874966968 -0.11217009892081498 -0.008040072984455249 -0.15516416823209297 -0.12093653972408672 0.15961329924660317 -0.0815642101761353
-0.4011837661714727 0.17287333247363396 -0.2552193685891462 0.0662337809078184 0.1596924526458629 -0.2617984295086045 0.06314179726084558 0.781447451356745
-0.6777480832764066 -0.2838577607240288 -0.16473178068214545 -0.23633254122509512 -0.252372822938986 -0.4539266906175674 0.009395466481862569 -0.25416173872148007
-0.05591289569925818 -0.3398615221203695 -0.24416697891617137 0.5052115869468905 0.021053393172623003 0.3708221203657079 -0.7462438989029953 0.4208517232050375
0.015605061729081965 0.4286585602110189 -0.07446569194330196 -0.17898971322587875 -0.14940275333082104 -0.2593826906054211 -0.21900420371325477 0.47904331728827276
00000000: d8bf 24a0 eafe abbf be26 d97d 3ba7 cdbf
00000010: 423c 685b 7b42 d63f 3e6f 437c e33c e13f
00000020: 0aa6 f5a2 3aaf e2bf a9a6 e864 1e31 cfbf
00000030: 782e 768b 5ab1 c63f f462 b650 5829 d43f
00000040: c9fd c288 159d a53f 7308 e170 44db bcbf
00000050: 549d 8b2e b276 e53f bbb9 1243 2f5a d53f
00000060: 1e0d e0df fd2a cabf f438 f673 53df d53f
00000070: 3e1a 2677 d67d db3f a4fb b11b 2dad d7bf
00000080: d9a4 5c72 062b cb3f f72a 861b fefd b43f
00000090: f136 b1fe 0902 c83f ebcc bbb0 b498 cb3f
000000a0: 09bb f256 5862 bdbf a470 2cbb 4490 b03f
000000b0: 4d49 7ee2 6497 d53f 4019 22cd 25b7 c53f
000000c0: 2a4c 9bdc b2c9 c1bf efa3 61a8 32ec dabf
000000d0: 3abf 74c9 923c d13f 6b0a 22b4 af21 cf3f
000000e0: 1225 25ce 7a7f cabf aa70 0e01 47b9 dc3f
000000f0: 7a44 d014 fd0c ef3f 3ae9 a3ed 3156 a23f
00000100: 5d07 a1fc 1f69 e3bf c0cb 5758 0ca2 d8bf
00000110: 7a12 ee31 3c1d d33f 16f9 4b6e 475d d1bf
00000120: 96be 2252 7bfb a43f 433d 1994 ea21 e3bf
00000130: 3870 eb98 79e1 913f 097d 04cd 02d9 ba3f
00000140: 1f80 b219 35cc c4bf fa80 4b61 b06a d23f
00000150: 78b9 820a 006c d03f 6e9d e799 92fc 90bf
00000160: 7b7e cae3 248c e2bf f02b 12f6 4288 e4bf
00000170: 74d3 0614 3bba d33f 30ca e970 9ad2 7c3f
00000180: 3a27 304a 9f8a ba3f 10f6 ac9b 3113 e53f
00000190: 53f1 0357 813e e13f f645 99c6 57db d53f
000001a0: 93f1 3e09 8048 d9bf eab3 c602 b231 a13f
000001b0: 014b c2e5 80ce b13f 80ab 84eb 10b3 e0bf
000001c0: 7446 7d4d 9c48 dfbf 4fc0 96b5 9383 e03f
000001d0: e378 dd93 d8fe b7bf 2cb0 25ba 1069 cc3f
000001e0: e892 f8de db57 babf 539a 756c c937 b9bf
000001f0: 7aef b757 8de9 943f 5165 c869 7617 e03f
00000200: b426 d930 4bfd dc3f 601d 9c53 538b b33f
00000210: 7f3a cb45 e4b0 e2bf 5055 af71 0d97 b7bf
00000220: c0d4 35f3 e218 d13f 317c f43d df39 c93f
00000230: 356b 2e94 a52e d5bf 2717 7c8e 1574 e2bf
00000240: a89a 9e13 098e dbbf 662a 932c a592 e83f
00000250: 6e53 3739 0d92 dfbf 45dd 9a66 0237 c0bf
00000260: c0ee 4745 e7f8 6d3f ed3b ac8e cdc4 d23f
00000270: 0583 b4cd b292 d8bf 9abf 54c9 d856 cbbf
00000280: ec56 54ce 888e c53f 9f12 e538 4e5c bfbf
00000290: 433e efa9 72a0 afbf 0a95 2106 4e2e b4bf
000002a0: cc2a 2335 ccd9 c13f c8df d3c2 bfbc 963f
000002b0: b4ac 6865 d3ac db3f 2a90 af42 ba91 aa3f
000002c0: 08d3 8f60 c2d8 933f 5eea 01ac c25e dd3f
000002d0: da6a 6d10 d79a b03f 5962 7e7f 16da d03f
000002e0: 95c8 a1c5 feb5 c63f 01fb f29a 4810 e0bf
000002f0: 5eea 363d 1863 e0bf 4a38 0d4f dacd dbbf
00000300: 5816 7606 381b dcbf a2de 033a 9dd9 e8bf
00000310: 665b 99c9 6c1f e1bf ff5f 93c6 b131 e0bf
00000320: 4c6c 5a1e e725 cdbf c580 d8c4 7818 e23f
00000330: 6788 2adc df64 ddbf 14d6 cdf8 8a82 de3f
00000340: aaa5 83f3 0079 b8bf 0440 0de3 4475 a4bf
00000350: a925 6dc0 b56a c7bf 0e54 cf8b 87a7 babf
00000360: 6201 807a 0eb8 d23f 2460 8d07 3274 e8bf
00000370: 306c e9c2 a322 c0bf fa39 2120 64f2 c1bf
00000380: de26 0335 c2e9 a63f b53a 1741 bff0 bcbf
00000390: edd2 969a 9713 a43f 8d30 acf7 2ea0 d4bf
000003a0: aa38 3fbd 98b6 cfbf eb03 e08b ca38 d8bf
000003b0: e80e 44fb 469d e13f c616 4464 55ac a43f
000003c0: 12d8 06cf 0459 dcbf b186 8fa4 ac86 cf3f
000003d0: b475 3c8d 064e d0bf 266f bff6 c346 df3f
000003e0: 7446 a1c1 462b db3f dc4c 0836 0ede d63f
000003f0: 86be 2647 3c14 cc3f 2049 31c6 2fc4 9abf
00000400: dbd4 65f5 da62 d7bf a8b7 0c61 157b 81bf
00000410: 33b3 55ea 608c dfbf bc63 7b2b aa83 e03f
00000420: c8e1 85dd 677d d1bf d772 2ac1 840d 85bf
00000430: d41e 5497 c3e2 d03f 4476 9737 06e4 b5bf
00000440: 252e 2c48 198e ddbf fbb1 b7c6 b3e6 db3f
00000450: 6b55 e34f a97a dabf 64b6 9358 20e7 e4bf
00000460: 8b7c ea04 34c1 a0bf 9b57 fc10 8c27 ddbf
00000470: 5fd7 6f32 e9da b4bf cfe7 b43d 49e7 cdbf
00000480: 721e bd22 b7d2 e03f ff60 8b38 d776 d73f
00000490: 1f9a 5e35 70c8 da3f adb6 286d 1e67 e23f
000004a0: 5697 41b8 e8fa b5bf 12a6 ef0b 5fe0 ccbf
000004b0: 5ba4 a459 dc41 d9bf f5f1 ef04 98f1 bd3f
000004c0: 2c0e 6135 1826 b0bf 24af c77b fc17 c63f
000004d0: f1a5 83ad 97f4 d6bf b317 59d0 3d6b e2bf
000004e0: 46dc 0ec8 d055 d63f a032 9bf9 0fdc c9bf
000004f0: 5417 1a96 6565 a23f 1e67 bc01 16af b53f
00000500: 7c64 2c0c 7981 d4bf 0686 fbe7 51ae d03f
00000510: 0e4b b515 63f9 d7bf 158d 59bc a2ab d9bf
00000520: 072d 5e6b 2047 c5bf 2e37 9cdb 08b9 e23f
00000530: 24a8 231f 99d7 c93f 702f d1e5 c55a d5bf
00000540: 6e3f 4704 a905 d6bf 8130 8359 5b3e d93f
00000550: 73ec 1788 92e3 b0bf f20a 7fdd ddbe c53f
00000560: b417 380f 0ae2 c1bf be45 7c69 71da ad3f
00000570: 80cd 2e53 e910 d7bf 5423 01b0 5bba aabf
00000580: a578 a4b3 1291 b53f ccbb 1e7b 26b1 d9bf
00000590: de67 d041 14d9 c23f 6133 ece3 2ba9 da3f
000005a0: 79e9 a9b5 0c67 be3f ea6c a4b6 ee0a c8bf
000005b0: 5c9d 9fa4 805d ca3f bb09 9cbb dbbb e03f
000005c0: 4c41 55fc 8df0 9abf 02b4 a223 b2a2 d2bf
000005d0: 0847 69cb f600 c8bf 9352 0785 b2e2 cebf
000005e0: afb9 1182 2cf3 c6bf 770e 4638 0a52 b4bf
000005f0: 3407 c80f a186 e0bf ce30 d273 9a23 b9bf
00000600: ac8c 8903 3a0f 9d3f 94a9 a69e 6fd9 cdbf
00000610: 7d7d dd03 fc7f b9bf 6f08 3e2e d85f e1bf
00000620: de23 c64c 565c c9bf 362c 05b6 d744 c1bf
00000630: c251 bf70 bd20 a8bf 0490 1737 ab7c e2bf
00000640: ba2b 3cf7 4333 d4bf 03ca 416b 5001 d53f
00000650: 7c3a 4d5b 223b e63f f05b ee36 def8 bfbf
00000660: 0290 6963 0b32 e0bf d15d 3a52 4898 ebbf
00000670: b0c5 3525 2964 953f fa91 70b2 9bfc be3f
00000680: 9a55 37fe 9b0a c53f f65d 791b 21ff a13f
00000690: 5c50 c39e 7277 e2bf 3181 6813 0de8 b7bf
000006a0: 29f5 50b1 043b cdbf c8e4 c766 90ca ab3f
000006b0: 161a 6799 29e7 cb3f 6b40 9e8c 6536 ddbf
000006c0: f3dd 4cbd 3ef5 d8bf 4b0d 4d87 ca06 cb3f
000006d0: 6038 74fa 2db7 bcbf 209c 3454 5077 80bf
000006e0: 57b0 0862 6bdc c3bf a2a0 0173 b2f5 bebf
000006f0: 4caa 2266 356e c43f bc06 3b5f 64e1 b4bf
00000700: 2320 d9ac feac d9bf ce92 a99e b620 c63f
00000710: 905a 599e 8355 d0bf e0b6 e372 b2f4 b03f
00000720: e618 c462 cd70 c43f 318d 3833 4ec1 d0bf
00000730: 79f9 3e92 0f2a b03f 29d5 e315 9e01 e93f
00000740: c929 93bf 1cb0 e5bf bea1 c1bd b92a d2bf
00000750: e421 5255 ee15 c5bf e66b c50b 2540 cebf
00000760: 6604 3b57 e026 d0bf 3cf9 be88 220d ddbf
00000770: 2080 292a ee3d 833f 1c02 ed98 2f44 d0bf
00000780: 12ec e774 9da0 acbf c73f ab8a 4ac0 d5bf
00000790: 49a2 9a12 dd40 cfbf b2e8 6f7d b12a e03f
000007a0: 60c1 954c 058f 953f 6da9 e6b3 8cbb d73f
000007b0: b717 94e2 3ae1 e7bf 5860 e810 3cef da3f
000007c0: 904d 3aee 8bf5 8f3f f86e 5050 246f db3f
000007d0: ce0b 92ff 2e10 b3bf 9c12 508a 22e9 c6bf
000007e0: 5e7e be21 a11f c3bf 0c1f 53db b999 d0bf
000007f0: 1346 516a 5408 ccbf feb5 474d a5a8 de3f
