es_outputs/nn_from_s3/checkpoint_00100/top_k_models/rank_5_weights.npy (npy, 167552 bytes, 1 tensors)

array f8 [20928]
00000000: a0c5 f84c 7156 c6bf 1b40 4a20 0c95 d4bf
00000010: 0c81 fe4c 97c1 d93f 50e1 2b59 9a75 e13f
00000020: fba7 b7cd b8e7 c7bf d83a 001c 7729 e0bf
00000030: 28c9 13b8 5e09 d63f 474f 4673 17c2 c33f
00000040: 37db c321 e1f7 d2bf 4825 7b0e f5fb 97bf
00000050: d403 ffb2 8fff d13f bb3c 40f4 22d7 c43f
00000060: a3bf a696 0a2c e2bf 3411 a114 1dd7 cf3f
00000070: da62 1e04 70d7 d93f ef76 f596 eeb1 e2bf
00000080: a5c0 dfb4 e88e b73f 4649 38c1 04bf d83f
00000090: 5c42 2836 4ed9 d33f 1dc0 0daa 8e28 d53f
000000a0: d4c1 1b1b d8e6 d53f 484c d377 fcd7 d6bf
000000b0: 72a6 9a5d 4668 e03f c3a9 062c d405 c9bf
000000c0: 1221 edc1 ceae b5bf a89d 75ba 97a1 be3f
000000d0: 1e9d f1c7 c9a0 dd3f dda9 f0be 5e0d d93f
000000e0: 05ff 5931 a122 d2bf 7c66 ca47 1bcd d83f
000000f0: 582d e1f0 2431 a83f 7ad5 748b 0b33 cc3f
00000100: 57ef e09f 526a e0bf 1858 a27c 8260 87bf
00000110: b168 7b94 8bac e13f a24e 7324 6bb4 c63f
00000120: 6504 d772 324b b43f 3495 19e0 b223 c63f
00000130: 40dc a7ca 9f2a e3bf c424 44b7 c482 f13f
00000140: a20c 92a4 1510 c3bf 1e8a c3bc 88ae d23f
00000150: b64b b095 fc06 c23f 8fc7 736f 7737 c1bf
00000160: 84e9 5516 38d5 cf3f 8b0b 3042 2572 c2bf
00000170: 4e05 331f f551 aa3f 3f38 2f1f 27c5 c23f
00000180: 7c1c c428 1cdb a13f 37ba c7d7 1c8f c13f
00000190: f82b 6985 f165 c23f f074 a230 6f3a 85bf
000001a0: 5458 2a02 6495 b1bf 6ea3 57a1 15fb d8bf
000001b0: ac5c 34c6 1c1e c3bf 7b2a 78b9 304f ebbf
000001c0: 98d7 70a6 d759 d2bf 9a0f 4da6 6007 c9bf
000001d0: 580a e565 1b1d c13f 9db1 4135 188e e13f
000001e0: 9495 d4e0 de0f d7bf 39ab f069 a24b d03f
000001f0: 82fe ea17 1b4b cfbf b26e f618 1c07 a03f
00000200: 20a4 32b4 20f5 76bf aae2 c40d a2d8 b83f
00000210: 5b9c 2058 b83b a0bf f210 d11f 193b c8bf
00000220: 7ad5 11e3 a3b9 e33f 6291 c431 f0e2 c1bf
00000230: 22b9 20ad b700 dabf c168 ec7c 056f d0bf
00000240: 86c1 b6d7 136d b2bf b756 2068 e34b c9bf
00000250: a828 eba2 62d8 c93f 5861 e4e2 dfce de3f
00000260: b17a 1f62 380a d7bf faf3 361c 7679 dabf
00000270: c8ec cea0 3772 ae3f 722b 53bf 7c7b d4bf
00000280: ec10 0870 ca60 b53f 96bc bba3 efaa d0bf
00000290: 6061 36ae 1005 d43f 7dcc 133a 24f2 d63f
000002a0: cbd6 4d3b a2b9 c2bf 78da 1ef2 ee88 dd3f
000002b0: 81be ef34 c9d3 d0bf 7051 ed83 aa6c a73f
000002c0: 09b9 b539 d6f2 d63f 6c68 ffae e732 b23f
000002d0: 52a8 3baa 4201 d63f aaee 951b 57ee c53f
000002e0: 6bea 8043 8ff3 d5bf 9a5a 2af8 d362 cb3f
000002f0: e063 ccc9 2314 e0bf df19 8b8b 657d ddbf
00000300: 9ab5 afee d66a dabf aa88 1e3b fa53 e4bf
00000310: 3450 9d66 2d93 a0bf 9611 9ed2 5c00 d53f
00000320: e0b0 24a3 603f a6bf f733 9cdc 2805 d63f
00000330: e7b3 55b3 42ef d93f 4a96 d095 7c8a c33f
00000340: ec6e ac66 8551 d33f 3eef 4b46 99eb b93f
00000350: 8dbd b662 8795 c73f b313 7905 4aa8 e5bf
00000360: 004c 7af4 7736 9cbf 2f3f 751a 4165 e9bf
00000370: 64e4 8664 e56a bbbf 6df8 96b9 b22f cabf
00000380: d308 6121 596b d3bf a3aa adf0 3a77 d7bf
00000390: 8b03 1a07 c567 e4bf eecd 1c57 b123 c8bf
000003a0: 0326 1626 29e7 b1bf a825 5504 6b83 88bf
000003b0: 40fb c1cf 49d8 9bbf 8cd8 bcc3 9fa9 cabf
000003c0: 3c60 f247 0955 bebf 056c 0793 538d c3bf
000003d0: 8441 85a9 a074 913f 84b5 9cbe a071 cf3f
000003e0: 58e1 6251 9512 afbf 5c77 99dc 62c1 e53f
000003f0: d4dc a71c 27f9 da3f f2ef 6cd4 c631 c3bf
00000400: b42f b72d 896a c63f c42e 4da0 e2e0 af3f
00000410: 7fcf cb31 0d9f ba3f c8c7 f21b 8e6b dc3f
00000420: 9255 284e 11a7 a13f dcb5 ad90 c78c c63f
00000430: 0828 c4bd 39e8 80bf 067f 2666 bcf0 a93f
00000440: ad6b 7809 97c4 b4bf e6b9 acb7 d652 9fbf
00000450: f580 9e33 313a eb3f 0468 262c 8b2a cfbf
00000460: d27d 1b8d bddf cebf d74a bcba c302 e3bf
00000470: abc3 10bb 4164 a73f 69a1 96c0 d556 d4bf
00000480: 4c34 3dee 3aff d4bf a75d c4e9 09d8 d73f
00000490: e5b6 0f1d b99f 993f ba44 eeff b5a5 e23f
000004a0: 1e21 c030 7ff9 c43f 1ff4 4a8c 11d5 d93f
000004b0: e430 663f ff33 dabf 648c 6f00 1844 a3bf
000004c0: b506 2258 2620 ca3f 2f1f d77e 9e6c aa3f
000004d0: 382f cfd7 c4cb e6bf 0bb8 ffc2 4b90 ca3f
000004e0: 293f 72cc 1ede d9bf 8cd4 384e 8ffe 9d3f
000004f0: 288e 80ad 95a1 d8bf 1a9a 22e7 1340 d83f
00000500: 4b98 2903 43d1 c73f 6fdb 4c11 503f d53f
00000510: a247 0e2c 814b cdbf e869 40c3 91a2 c6bf
00000520: b34c 5ae1 fba5 de3f ce52 b728 3cc3 a63f
00000530: 2c03 ea90 1881 b9bf d225 fdda 1c6d c23f
00000540: 68b6 0c84 f87a 743f 2096 52d0 4154 50bf
00000550: 58f5 756d 64a6 aa3f 50dd 8c06 e8ab b6bf
00000560: 2468 bfcf 4341 ccbf 7c6c 3e05 dae5 db3f
00000570: c26f c219 8ed2 d9bf bafa 7c53 f975 d0bf
00000580: 2a6a cac8 fc6c bb3f 60f1 4422 d981 59bf
00000590: 7769 d212 4bcd c33f 9ca4 8667 0faf d13f
000005a0: 3a83 500c 46f0 91bf 649b 4bbe ffc4 b5bf
000005b0: 08f3 5fb3 9fe4 c43f 9872 9b2a 88b6 a4bf
000005c0: 90c0 f96f 8c87 db3f 16af 6e65 09a3 d63f
000005d0: b24b 9bbf 6277 d63f a7cd d789 15ba c33f
000005e0: 21f4 8aab c6e0 d4bf c190 d72d 11ec bcbf
000005f0: aee2 350e d22e b53f e7b8 3060 b761 a6bf
00000600: 64e2 3acd 2b32 943f 9ee6 d0f9 29b2 d5bf
00000610: b085 136e 55fd b9bf f53b 7526 1cd1 dabf
00000620: 8fa1 afba c237 d7bf ecba d66f a00d be3f
00000630: 166b 20be e146 b83f 505c 0454 b49c 863f
00000640: 2585 586c 030a c33f 9954 2d61 cbb1 d83f
00000650: e45e aeeb 7386 c9bf 6485 aad6 0dfe dd3f
00000660: 97e9 ce2c 2499 ccbf de78 6903 3b93 d3bf
00000670: 6a10 94dd 0815 c23f d1db ed5a 3d38 e0bf
00000680: 2a85 9470 38aa d4bf 52fd 5985 0d6b b0bf
00000690: 245a 0427 1dc9 eabf 7f34 841d 16a1 df3f
000006a0: 9dfc efba 0153 b43f d2c0 2789 d606 bb3f
000006b0: 5bb6 6c07 089d c2bf 4e5f ac9e aa6a c1bf
000006c0: 30a7 718f 669e 8cbf eb5a 36bc f671 d93f
000006d0: c0f1 73a7 125d 5d3f 3812 cae4 1ab0 adbf
000006e0: e7d1 4e0b d890 c9bf 4262 baa6 8cb5 d5bf
000006f0: 222f 6d52 70a3 c2bf 85b8 deb9 ee54 c5bf
00000700: df5f 6694 67d9 cfbf 95e7 5360 a9bb d43f
00000710: 05c1 971c acc4 da3f b3c7 c8a1 0de0 d5bf
00000720: de4f 2d88 cf7f d23f 6131 3160 71d0 b33f
00000730: f0f8 6e3c fba5 9d3f ca72 f8da a71d c7bf
00000740: 2183 9036 8b54 d33f e057 5f98 9141 853f
00000750: 8e0f e7e7 1ab1 d3bf 883c b401 e146 cd3f
00000760: 203f fa86 8916 de3f 32dd 5865 1dfa b13f
00000770: 641e 67c2 b326 dcbf 0aef 43db 7913 dfbf
00000780: 8c9c 4b65 f3a2 d43f 27d5 6811 0746 d9bf
00000790: 8072 b8c0 7913 d4bf f3b9 a9e3 fc60 bebf
000007a0: 8df9 e995 5829 c43f 2c55 a2b2 a5fc d7bf
000007b0: c49b 6b48 7df0 d3bf f7b4 a4a9 cfe7 ca3f
000007c0: 6468 1195 a652 d2bf 451a 894b 581d e63f
000007d0: b781 813b d55c dabf 4070 479e f17f a9bf
000007e0: e33e 8213 f3f5 bfbf 0856 9bba a343 d73f
000007f0: 084f aa2b 8268 a1bf 8b62 a4f1 d49d c93f
-0.17451301821124066 -0.32159712937664303 0.4024408580680905 0.5456058255795515 -0.18675909085078488 -0.5050616785900628 0.3443218991880195 0.15436070564885027
-0.2963793592202139 -0.023422078141071695 0.2812232254037188 0.16281544615092067 -0.56787614273161 0.24875224597247725 0.4037742653104438 -0.5842202137389146
0.09202436843748048 0.3866588484680914 0.3101382759933011 0.3306004200630939 0.34221460959727534 -0.3569327516717675 0.5127288654523012 -0.19549038076122657
-0.08469860300568069 0.11965320875389429 0.4629387333465774 0.39144104620450354 -0.28336362666594567 0.38751871119311665 0.047249941257713146 0.2203077727259986
-0.5129788515691683 -0.011414546421558966 0.5523126506843906 0.17738093643003078 0.07927241615017662 0.17296443884257828 -0.5989531477088192 1.0944258841357604
-0.1489283612791939 0.29190271791427047 0.1408382159139287 -0.13450520460133616 0.2486944302616615 -0.14410844547100185 0.05140653615809275 0.14664162657430954
0.03487480161316456 0.13717995201246122 0.14373606695366425 -0.010365360900602444 -0.06868577053896391 -0.3903249812706723 -0.14935645750003823 -0.8534167883347686
-0.2867335439108216 -0.1955376445786186 0.13370077586485496 0.5485955276649751 -0.3603436656579444 0.2546163591929829 -0.2444795481478544 0.03130424313277781
-0.005604865789032437 0.09705555759581821 -0.031705628164041065 -0.18930353215740287 0.6164111552194946 -0.1397381060607002 -0.4062937918378272 -0.2567762107806964
-0.07197689072086719 -0.19762842735570071 0.2019160552502559 0.481376620840384 -0.3599987943870629 -0.41366341357553404 0.05946515882484388 -0.32003706630774
0.0835081599726128 -0.26043311109146694 0.31280915272647825 0.35852914497008453 -0.14629009147363656 0.4614827503641332 -0.26292638940410745 0.04575093136250785
0.35857158313491816 0.07108924887089224 0.3438269293243411 0.1713360676475209 -0.3429906996931666 0.21395349137738578 -0.5024584714293461 -0.46077860476762383
-0.4127709704324275 -0.6352511553452775 -0.032372874046501826 0.3281471306620686 -0.043452281870800524 0.34406491798364364 0.4052283049884963 0.15266377749610377
0.30185065294948177 0.10125120130754525 0.18425075836192342 -0.6767931086438835 -0.02755153112100217 -0.7936101452596399 -0.10709985451002663 -0.20458063184736677
-0.30342701205894435 -0.366652236020551 -0.6376671923354577 -0.1885892558435524 -0.06993348293158168 -0.011969410009117734 -0.027192261987234234 -0.20830151612762327
-0.11848505026353079 -0.1527504413523674 0.0170464614359971 0.2456551485751498 -0.060688654122204866 0.6798567112525506 0.42145707891854767 -0.14995656368580473
0.1751262162418904 0.06226261336140973 0.10398943391538572 0.44406464318592187 0.03447774962493634 0.17617125095732333 -0.008255435088830879 0.05066479441597775
-0.08112472516260878 -0.030589442215552064 0.850853539293921 -0.24348582893145487 -0.24120301618584833 -0.5940874716928545 0.045686773381368916 -0.31779998595677356
-0.32807801499877054 0.3725609572297465 0.02502335777165045 0.5827283857962791 0.16386403923412102 0.4036296720549348 -0.4094236487515117 -0.037628889134588644
0.2041061334930895 0.05160994814246888 -0.7123741354966802 0.20752856275015605 -0.4041821476503054 0.029291381024638727 -0.384862346111023 0.37891099521439886
0.18607366232316944 0.3319893044421666 -0.22886671687279853 -0.17683622392435372 0.47888085372069183 0.04445827481291574 -0.09962609804098282 0.1439548558503661
0.0050000865601710145 -0.0009966509544850968 0.05205072246733761 -0.08856058273237477 -0.22074172634057831 0.43590403091520336 -0.40347626224115285 -0.2572005572618924
0.10713176633945723 -0.0015568371246238097 0.15470255297698163 0.2763098250384901 -0.017518133641831947 -0.08503721614725418 0.16322704561743984 -0.04045510788066514
0.4301482289802232 0.35370097070220774 0.3510367270620761 0.1541163371144709 -0.3262192416403327 -0.11297709817114578 0.08274567458091539 -0.04371426629255542
0.01972263755917182 -0.3389992656335411 -0.10152181565674456 -0.41901305919321824 -0.36277836066303676 0.11739542704047395 0.09483157054675603 0.011041077436443697
0.1487430838615548 0.3858517121310086 -0.19941567428462925 0.4686312290524113 -0.22342350185301704 -0.3058612378425901 0.14126692599541296 -0.5068651939353633
-0.3228894328513713 -0.06413349633839019 -0.8370500337649145 0.4942069328543041 0.07939158262159869 0.10557309006231044 -0.145417216897317 -0.13606770274850039
-0.013974000217973875 0.3975807989130959 0.0017922098321029173 -0.057984199932466784 -0.19973278572218975 -0.339205897159932 -0.145612755057635 -0.16665443492587798
-0.24882216211403738 0.32395395667082855 0.41825392524971533 -0.3418001251148965 0.2890509443143382 0.07739933584634208 0.02895348125797964 -0.1805925196830656
0.30203514412464655 0.01037896867994087 -0.3076846375154155 0.2287255533524084 0.4701255624904537 0.07022269939703987 -0.43986219391488235 -0.48556372082360666
0.3224457253658748 -0.39489914608141635 -0.31368869610177086 -0.11866741712740474 0.15751178092973497 -0.37479536480653297 -0.31155330726909036 0.21019931586616966
-0.2862945991270236 0.6910821414283609 -0.41191607295152316 -0.04980425889127149 -0.12484664179123288 0.3635033914882517 -0.034000461416466676 0.20012914465839446
