es_outputs/nn_from_s3/checkpoint_00100/top_k_models/rank_1_weights.npy (npy, 167552 bytes, 1 tensors)

array f8 [20928]
0	0xbfe2a66b387124db	-0.5828147985822868
1	0xbfe5baea32ba13fe	-0.6790667525061733
2	0x3fe861952e64c88e	0.761911955464045
3	0x3fe625546c70f3c2	0.6920568578713004
4	0xbfdc30d2d7c35275	-0.4404799563465425
5	0xbfdf6a194fc9bf14	-0.49085076133541006
6	0x3fd0a7e549e7f4a0	0.26024753777876164
7	0xbfc1262f4f98f747	-0.13397780787084398
8	0xbfc9ff94de2a6697	-0.2031122288506608
9	0x3fbb231cef66ce4e	0.10600453228726645
10	0xbfd8611db327ccbe	-0.38092749114657554
11	0xbfc8c7e3ae4816cd	-0.19360013971179627
12	0xbfe0ddc68a2979cc	-0.5270722101666308
13	0xbfa49d697b4b2f11	-0.0402634585385312
14	0x3fb5948a72f8506c	0.08429780299076278
15	0xbfdae76b69be46a2	-0.42037473036280393
16	0x3fc32446fe4e08b4	0.14954459588267854
17	0xbf965d95f8ffda64	-0.021841376612395172
18	0x3fb6f65c1a00768b	0.08969665179071222
19	0x3fe104bc869fb288	0.5318281773921436
20	0xbfd36b845a2e1f90	-0.3034373169580187
21	0x3fd4b89c024815e8	0.3237676641732308
22	0x3fccfff77b03c263	0.22656148439957055
23	0x3fd1bf17527eda27	0.2772882753010059
24	0xbfd8cdf0110956a9	-0.38756944335669147
25	0xbfaf5c2066737dfc	-0.06124974489807397
26	0xbfb4534ca3997930	-0.07939604753616858
27	0xbfd5fb9babba7f46	-0.3434819390331437
28	0xbfc659856566d0bd	-0.17460696650744537
29	0x3fe47572e6132b1d	0.639337014546388
30	0x3fa7634d35469738	0.04567948603953059
31	0xbfd6a6e7e9d983b1	-0.3539371284187452
32	0xbfe6b81a620638e8	-0.709973517850611
33	0xbfcb2bb46887ea86	-0.21227126220749798
34	0x3ff1e88e2e6d6c00	1.1192762197085813
35	0x3fe9ed3c92196039	0.8102095464228177
36	0xbf9fbcb14d3c20bc	-0.030993242587130196
37	0xbfe24b6df5eb1f8e	-0.5717077067465526
38	0xbfdd662e6b49e139	-0.4593616531124272
39	0x3fbb448bb108970f	0.10651467392071033
40	0x3fc88d6fab1b38a6	0.1918162904243605
41	0x3fd597bf4a0e10e2	0.33738691551140054
42	0x3fd3e1d1b9b7f84d	0.3106579126032372
43	0x3fd85688bd23e8e4	0.38028162451486325
44	0xbf96d01969e5de68	-0.02227821072435035
45	0xbfe1614469dac69e	-0.5431234424088023
46	0x3fb062fc46156624	0.06401039801621572
47	0x3fd42e059f15948a	0.3153089574391933
48	0xbf811c2e19c78481	-0.008354530488704494
49	0x3fd54a8212fff87d	0.3326726136728054
50	0x3fc436021d582fba	0.15789820130191662
51	0x3fd59ef57fdf8cde	0.337827086330618
52	0xbfd9e545391c43d0	-0.40461855485142184
53	0xbfd2007b109b102e	-0.28127934095050733
54	0xbfe005be80dd1dee	-0.500701190649975
55	0xbfd820392039632c	-0.3769667448701053
56	0x3fbfbf4d5f7fb775	0.12401279050365395
57	0x3f9224a511bfcca0	0.017717913826299836
58	0xbfc9ec6cd94a3c00	-0.20252762422430237
59	0xbf89a5078319da98	-0.012521799744019277
60	0xbfd0f85701e97607	-0.26515746294703074
61	0xbfb42d4a7537fc66	-0.0788160835436301
62	0xbfd41ad6d1c2c41c	-0.3141381309934006
63	0x3fc4d3f0339371c8	0.16271784323079275
64	0x3fca374b964918b5	0.20481247747574619
65	0xbf792abee86eaf6a	-0.006144281133781829
66	0xbfbc8b2588dc7f7c	-0.11149820891705348
67	0x3fb94edf9650b382	0.09885976238065378
68	0x3fdc3b6b2ab0e852	0.44112662476584774
69	0xbfddd2140c72fbd8	-0.4659471627782614
70	0xbfc88841118b37b6	-0.19165814739829806
71	0x3fb5f3e0187ec81c	0.0857524928858599
72	0x3fd28221f4c9dc27	0.28919266610268085
73	0x3fcf473a3a02bb36	0.2443611891989918
74	0xbfbd0e057f819498	-0.11349520075744335
75	0xbfd1f1afcf28a124	-0.2803763888391748
76	0xbfdab6cf9f1ea138	-0.4174078992750938
77	0x3fde8f3a4ab51ebe	0.47749192519811945
78	0x3fc0a2ac72fc4aa3	0.12996440519835514
79	0xbfda356a3174cecb	-0.40951018171038517
80	0xbfdc29d5c186abf5	-0.44005340479878835
81	0x3fd69b73091df13b	0.35323787584617933
82	0x3fa69518db8553c8	0.04410627059647926
83	0x3fcac6dc859b9551	0.2091937687284067
84	0xbfd33745f71e7907	-0.3002486146232432
85	0x3fe4aabc1498d488	0.6458416368756312
86	0x3fcf9c39ba035f79	0.24695512373613918
87	0x3fe02323717e8f9f	0.5042893616377916
88	0xbfd065edba118672	-0.25622122927425217
89	0x3fcb690fc226d240	0.2141437242513735
90	0x3fdb63b1dfd1ef80	0.4279598890059262
91	0x3fc2f4438be472c9	0.14807934122736402
92	0x3fb9e7b75127bf3c	0.10119195681886323
93	0xbfd3b3e8a59ac2e6	-0.3078557603103448
94	0xbfada0418cc86cb0	-0.057863281665242794
95	0xbfcf223baec1b43e	-0.24323221238174314
96	0xbfdc477282fa02cc	-0.4418607977932367
97	0xbfdeb373803da70f	-0.479702830538927
98	0xbfcbe511e7139764	-0.21792815955194123
99	0xbfe1eecd8cb5a52a	-0.5604007480843951
100	0x3fb3c0c6a57f8aeb	0.0771602777527211
101	0x3ff0c9aa36b3aa4f	1.049234594038939
102	0xbf8b7f14b0c709a8	-0.013425981182881255
103	0x3fba9926255c96e5	0.10389936840200738
104	0x3fcbfb33ce89023f	0.21860358795858478
105	0x3fca9cf7c671cd31	0.2079152792899577
106	0x3fb60cb5c10580fc	0.08613143885077429
107	0x3fdca6af13d19f2d	0.4476735776465713
108	0x3fd9fecc9934ff14	0.4061767097627904
109	0xbfa36f6b0f649260	-0.03795942843342881
110	0x3fe5126e8324e602	0.6584999619873886
111	0x3fceafcf10f6ecc4	0.23974026039454632
112	0xbf6293a96aa7f600	-0.0022676762503113235
113	0x3fb409185b1cf850	0.07826378082697372
114	0xbfc50f7906d70d17	-0.1645346911810541
115	0xbfc990a43d537a05	-0.19972661013066798
116	0xbfd9597b6739a3b3	-0.3960865505273958
117	0x3fa60fa78c825220	0.04308818426321559
118	0x3fd1e6b015e7dab1	0.27970506800867684
119	0xbfb63ddc357f986e	-0.08688141161073457
120	0x3fd48feb26435a3e	0.3212840913451237
121	0x3fddc5a68044523b	0.46518862272322153
122	0x3fd3b3f0ef65c9ce	0.3078577363841334
123	0x3fc3dc9eb276f3bb	0.15517028535933072
124	0x3fe91dd5797ed747	0.7848918316801495
125	0xbfe992da388a65c1	-0.7991763214405908
126	0x3fc5b3ac0b136516	0.16954565563973095
127	0x3fdb4e23d8f40be6	0.4266442888912806
128	0xbfbc31a5e8d494b2	-0.11013256964050092
129	0xbfd8e45dbace23bc	-0.3889383625287868
130	0xbfb525f186a8e3d9	-0.0826102212676142
131	0xbf9471c8424d4e67	-0.019965294882537423
132	0x3fb2ade4955b9a31	0.07296589514189901
133	0xbf98105413205207	-0.023499787967084653
134	0x3fdf69a9388ceda2	0.49082403681287634
135	0xbfe08d4eca34d709	-0.5172494839996215
136	0x3f73abf90cb62a20	0.004802677965367624
137	0xbfe24a7a096dc69e	-0.5715913948208315
138	0xbfd0fa6084730a44	-0.26528180059918705
139	0x3fe179da266c5b9c	0.5461245298819111
140	0xbfbe0412342b4e2a	-0.1172496201864354
141	0x3fcd5f864f9896e4	0.22947768103147503
142	0xbfe0db6e66980d03	-0.5267860416210229
143	0x3fd9bde1f1d00440	0.4022145139170483
144	0x3fda0b305df819ce	0.40693291832613177
145	0xbfd54e20a356da0a	-0.3328935237035756
146	0x3fd54d523bbf9278	0.33284431299970363
147	0x3fc684661989607e	0.17591549155145353
148	0x3fe1ab726f60863c	0.5521785903294538
149	0xbfd3c520e10108c1	-0.3089067647271229
150	0xbfdafba1c826a1f0	-0.42160839601504474
151	0xbfd6f0b16ccb6410	-0.3584407389112707
152	0x3fab5996ad37c920	0.053417881626858454
153	0x3fd0d5f3a0a14a51	0.2630585735943543
154	0x3fd3e33562c7814c	0.3107427086488499
155	0xbfaaaf14df08b300	-0.05211701605398922
156	0xbfb6d6317abacc79	-0.08920583006219997
157	0x3fb2f61473774083	0.07406738108625359
158	0xbfb39278d9f556ed	-0.07645373650788274
159	0xbfd3ef2ed5eb2507	-0.3114735688255483
160	0x3fc5389261358f4e	0.16578893419784396
161	0xbfce77bec74f3844	-0.23802933437258578
162	0x3fbd2db34e2b6019	0.11397858293946718
163	0xbfae102c276ae503	-0.058717136203492636
164	0xbfc31a5613649350	-0.14924121806066148
165	0x3fce3ffec50aa9ac	0.23632797833608998
166	0xbfce6134bcb587e6	-0.23734149183570635
167	0x3fcdd492b0a7a6b2	0.23304971338011665
168	0xbfd20fb6157955e2	-0.28220893952433646
169	0x3fa9f92c0e28b0e2	0.050729157188784915
170	0xbfc0dea1aa32d6c0	-0.13179417429426188
171	0x3faeb277c97a5698	0.05995535215803932
172	0xbfc187476a0be41e	-0.1369408862881593
173	0xbfc4652da75ad8a0	-0.15933771773933803
174	0xbfc015a64c857d95	-0.12566069351576617
175	0x3fcc887ee66415a4	0.22291551827963219
176	0x3fcdd70ddcf7e2b9	0.2331254319140237
177	0xbfae4ff2eeaf125d	-0.05920371211644657
178	0x3f93add81d8303a4	0.019217850495582348
179	0x3fd46b62355a2405	0.31905417642752837
180	0x3fe634534b1fc4fc	0.6938873736636704
181	0x3fb8a2f73cd43034	0.09623666033820727
182	0x3fcf876d40e9ae53	0.2463203970868216
183	0x3fee4a49e3f67ed6	0.9465684368514882
184	0xbfe0603b09aebd4e	-0.5117469014275373
185	0xbfc5ceca67819074	-0.17037324956902788
186	0x3f6816f349ef1cf0	0.002940631078192639
187	0xbfbf999f1a273b08	-0.12343782795435854
188	0xbfc0b16eecb08b84	-0.13041483456717284
189	0xbf8f7efaab1f0be4	-0.015378912303168187
190	0x3fd11b6b16b7f85b	0.26729848116509
191	0x3fd1dda04aa258c5	0.27915198601239083
192	0x3fe0c787d7452f17	0.524356766175944
193	0x3fd38d152b395f6d	0.3054860040770027
194	0xbf983f1d0396c87a	-0.02367825827031609
195	0xbfd86e93b5ad9bb6	-0.38174908391959705
196	0xbfbbd039deb4201e	-0.10864602744197824
197	0x3fd59b40c41f7d8b	0.33760089066159854
198	0xbfa0a8451b052a28	-0.03253379778705706
199	0xbfd94b83fc52e7fe	-0.3952341045475122
200	0xbfdac5161ea2cb80	-0.41827919952191195
201	0x3fdaaff82d437d6e	0.4169903223064101
202	0xbfb57766ed29c1cc	-0.08385318079104492
203	0x3fec6b292eb6036f	0.8880811607669851
204	0x3fdd9710862d4078	0.4623452482528658
205	0xbfd1201fe3e3f64a	-0.26758572821549775
206	0x3fc76ebe9e1d9870	0.18306715698708187
207	0x3fd137c36897b6a1	0.2690285226261527
208	0x3f971330355ade44	0.02253413510945125
209	0xbfdcb1601ab0f2cb	-0.44832613569796526
210	0xbfcf89f8a8083058	-0.24639805035292528
211	0xbfd8ae9ff029ce77	-0.38565824941108623
212	0xbfa593b5f3e98e5b	-0.042142568611578134
213	0xbfdedbda1db66bde	-0.48216870214099383
214	0x3fcaf63a0317a829	0.2106392397975594
215	0xbf9a4cdb8a22cd1e	-0.025683813387059044
216	0x3fb96224466ecebc	0.09915377349426086
217	0x3fb2c17b13e6dd9e	0.07326478229412323
218	0xbfad647950004b6c	-0.05740717984749363
219	0x3fba5aeedc3afb74	0.10295002819746718
220	0xbfaf5ca4e1b3f778	-0.06125369315303336
221	0x3fd1bf5982fd9aff	0.277304056091836
222	0x3fcd4f92c9b99afa	0.22899088716368238
223	0x3fa42f1b5baca0a8	0.03942189687796943
224	0xbfbad8ead5f3b90a	-0.10487239573896914
225	0xbfd1fd1c6ff5179c	-0.28107367451991094
226	0xbfd3de58765665ff	-0.31044589573284037
227	0xbfbf70463f04ae36	-0.12280692137272173
228	0x3f9b86ca31c7ced0	0.02688136986576134
229	0x3fded10a9bdc5029	0.48150887699853456
230	0xbfc99222e4a44458	-0.1997722259916681
231	0x3fbcac75ab8074a3	0.11200652539305848
232	0xbfd775aa01772069	-0.3665566458043999
233	0x3f62dfc2c2b74c80	0.002303963081183691
234	0x3fdb1e60987ba8ff	0.42372908488199806
235	0x3fb284cd258e8478	0.07233888785278164
236	0x3fa96b97e6f093f0	0.049648997250450466
237	0xbfced8294bec3b9d	-0.2409717198101732
238	0xbfd989ab9af59270	-0.39902773030033867
239	0xbfd04572b35747c3	-0.2542387725235324
240	0xbfc803a8f71fb549	-0.18761169497103428
241	0xbfdad9473f12989a	-0.41951161536634063
242	0x3fb7ad1598882736	0.0924848077194412
243	0x3fc352ee93217bd2	0.15096838173027877
244	0x3fc06bf5ef658119	0.12829469861299783
245	0xbfcc0156545f6a4c	-0.21879080886613378
246	0x3fcbb29117d2be79	0.21638692534678564
247	0x3fce052787344034	0.2345323000122349
248	0x3fd4a15b22a420e1	0.32234838850901154
249	0x3fd1dcedc8db81b2	0.27910942664132243
250	0x3f972f102ca27750	0.022640469288141063
251	0x3fb8f44157a94dc1	0.09747703924340724
252	0x3fc526b3091b19f6	0.16524351067182835
253	0x3fb019c3ac75bba6	0.06289313278624195
254	0x3fd63a2fe50f1070	0.34730145806339063
255	0xbfcc92917981d6b7	-0.2232229083344259
