es_outputs/nn_from_s3/checkpoint_00100/top_k_models/rank_4_weights.npy (npy, 167552 bytes, 1 tensors)

array f8 [20928]
00000000: 5013 7178 3104 d7bf c94d c200 54d4 cc3f
00000010: 8477 dd61 437b b33f 1678 74a5 78d8 c5bf
00000020: 93a9 d029 8895 c8bf 3d8e b1df b6b0 dabf
00000030: a609 ec53 a40c e23f 8a58 2d94 ea9b df3f
00000040: ab21 c69d fdd8 9e3f 7041 884c 01d4 773f
00000050: b34a bd1f 8359 c5bf 34d5 873d 93da d93f
00000060: 24e9 2b6f e28c e9bf 880c 3087 2437 d33f
00000070: 57f9 1e0d 685b c13f e446 3b7c 8bea e4bf
00000080: 5016 6710 9d09 b93f bad0 4c77 ab97 b1bf
00000090: 3e71 1c5d 849a c8bf 2093 9aa7 d0ee bf3f
000000a0: 3973 1924 ee7b c1bf 8451 0202 ddd4 c33f
000000b0: 9828 fdbf f21f a43f d826 3c4c aa04 bebf
000000c0: fe8b 8d29 9c06 a73f 951b 6ca6 c113 dfbf
000000d0: a082 a4b7 7fa7 d8bf b4f1 35a3 0224 cebf
000000e0: f67b a90d af56 a63f c1a3 fecf 9acd e23f
000000f0: 7e32 162a 3a5b e13f 24b3 23c7 9c55 94bf
00000100: 1ad9 ebf3 9b49 b03f 6921 2eee 744a a7bf
00000110: def1 a4cf 4324 c53f c8c3 bcab fc2e 95bf
00000120: a00e 31e2 56bb de3f 8c58 9239 19a2 a33f
00000130: e8b2 664a 8612 b63f f084 c86a 5cf1 d2bf
00000140: 4175 5a3f e910 c6bf 1409 1625 aa73 c83f
00000150: b1d9 cea0 77a3 a1bf b1ef a51d 8816 d9bf
00000160: 6e3a 1a7e 341b d2bf cda5 247e 3fe7 d1bf
00000170: 6689 99f8 e104 d6bf 6b73 3de7 f50b d5bf
00000180: 7af6 af53 be26 b23f 03c9 5d4c bd39 cdbf
00000190: 3e59 5820 34bd db3f 000e 31aa c8c3 91bf
000001a0: 0bbf adbd 5ec0 e8bf 73f8 41a8 41cb d13f
000001b0: 4477 e9e3 8751 d43f 4d5d 79b0 da85 e2bf
000001c0: 6cf5 07b6 f893 c23f f4e4 ec21 b28f dd3f
000001d0: b2dd 8cd2 9076 d3bf 44c1 fbe9 c70b cc3f
000001e0: 8f8c 365c 4920 d13f 0e8c 8279 a9ef acbf
000001f0: ce5c ffd4 b21c b23f 320f 831c dc49 d23f
00000200: 4021 a0fe 1197 a7bf c8b0 f436 b4f3 a3bf
00000210: 6a9e 81ba 81c2 cc3f 5fe2 ea72 e947 c53f
00000220: b19a 9173 aeff d43f 8c05 1d48 8317 91bf
00000230: b9b5 7bc2 b3d9 d1bf d012 0ece 800a e4bf
00000240: 7955 ddee 0ace debf b9d6 6988 919c e33f
00000250: d215 eb1c f598 a63f 950b bbb4 6330 d83f
00000260: 678f 8b3a d979 dcbf 9c34 b753 ab12 d73f
00000270: f6fd 5980 65b7 d8bf 4b91 1250 29cf d03f
00000280: 66b8 9623 dfc0 ca3f e5a0 6407 a8d0 d4bf
00000290: a88a 31b7 4cb4 d23f 20d2 cf71 60fb d4bf
000002a0: aa01 5eca 7dfd d83f 69e2 118e 450c d43f
000002b0: 5f18 649b 3b5a d93f dfd0 17fa e8b0 cb3f
000002c0: 7838 15f2 b4c9 b53f 9ce5 8614 9d94 c6bf
000002d0: 9185 7ce3 9c6b cdbf c47e 93aa a973 b23f
000002e0: 021e d624 e108 e0bf b822 9634 9294 e33f
000002f0: e016 cd7c 7370 e3bf 407e 23cb f85a cebf
00000300: e2ab d4e5 a7c9 bdbf 77e2 37b5 03f6 e0bf
00000310: 0fb6 371e 2862 bd3f cb01 b1f0 7892 ccbf
00000320: c888 0a7a d356 c43f 6c50 e7c9 43f1 eb3f
00000330: d1bb 922b 3005 c0bf 1443 f6b6 61ea e93f
00000340: 8a38 d0d0 e0bd d53f f400 f3bd 3756 c03f
00000350: d053 e83a ce7d ac3f faa6 86e0 772f b43f
00000360: 2520 da38 ec83 e63f 60e9 2fad 1538 cabf
00000370: dab5 dc38 ec55 d03f 6c50 988f 5c89 a7bf
00000380: ec22 7f64 6e05 e1bf a07a b0bc 53f7 dcbf
00000390: ce0d ab57 9464 ca3f ee95 124f 61b2 e7bf
000003a0: aa30 490e e758 b5bf 74fd 52ce 68b6 d33f
000003b0: 8bba d404 04c2 d33f 7ae4 0a1c 9b65 e9bf
000003c0: acd6 967e 4e5c bc3f 07e7 1359 8c59 a83f
000003d0: 7841 dee9 d9e2 c03f f5f7 a6df 5122 f13f
000003e0: 9220 167f f4ac bbbf c8a6 1020 a061 9fbf
000003f0: 78ef 055b 9887 d63f 37f6 bf5b be25 debf
00000400: eb17 a70d d958 d5bf 48ea 4df7 88a4 b73f
00000410: 1cdc 9f83 192e b5bf d6bf a705 554b c03f
00000420: 4886 ddad 24aa 9bbf 9814 a344 8838 d43f
00000430: ea24 8884 1eaf bf3f 3c03 8cb5 7ba1 cc3f
00000440: 4f54 5ec0 9449 dabf 6c24 8ced b6db b7bf
00000450: 3930 4da3 ca42 c4bf d7cf 6100 8d1d c93f
00000460: dc05 7700 4063 e1bf 57cd 78f7 6eed d9bf
00000470: 20e3 ba34 886e c83f a390 1dfb 6a98 c23f
00000480: 486d 6656 bfda dcbf f07d 2cf0 0a56 dc3f
00000490: f709 cd53 9789 c23f 6d61 6a65 cc27 c23f
000004a0: 7cba 235d 92cf d8bf 4139 3bda 5a5d ddbf
000004b0: 58ff 29a6 243b d73f 2ad0 b232 d5f8 a6bf
000004c0: da6a a933 722e a23f f8ee 59ff 0e9d b33f
000004d0: 788c 0862 1825 afbf 2b8b 8a80 39ec e13f
000004e0: 006e cb93 26aa 87bf 1b16 627c 01d8 b4bf
000004f0: 0c55 9b33 f4d3 cabf f7dc f707 72af d63f
00000500: 8bae 5885 ade6 943f 7089 8ed5 7657 7bbf
00000510: 9685 ebb6 0973 ddbf 36c4 f2f9 142a a1bf
00000520: 80e9 37a1 1593 98bf bf39 b1f2 7200 c9bf
00000530: 42ae 92cc 72bb dbbf a949 9c1d 3a51 babf
00000540: 6d73 22de f27b c6bf 97e1 9f02 3a92 cfbf
00000550: 07c2 fc07 7db7 b73f 7cdd 31b4 86ff bfbf
00000560: 2a4e 54ed 5a25 d1bf 9fb5 dfb4 f633 b8bf
00000570: 2330 1a7c 0ee7 d3bf b016 7d7c db65 8e3f
00000580: e578 ed95 24d7 d9bf 5ad3 3280 0a3f e43f
00000590: 5605 0d3e 708b c73f dcb4 5bfe 3883 e83f
000005a0: c211 cee8 e7f5 df3f 607a 1bbf c883 a8bf
000005b0: 3d2f 0120 efec e0bf 50bb 2847 355c 8c3f
000005c0: 189d e3f8 925b 9e3f 3b09 197b 5398 b73f
000005d0: afda a832 b2f4 ce3f e0f9 0ed7 061f 9f3f
000005e0: 9b90 e824 2a7b bcbf 9e5e e518 d0ef a5bf
000005f0: b805 8697 02e5 c53f ee42 2676 1d42 d2bf
00000600: 7ab2 79e3 8e40 cebf 8090 5937 3251 d63f
00000610: 3ba6 bd51 152a d2bf e604 eea2 21f7 c8bf
00000620: ec6d aa73 5225 be3f aaf0 5958 44ec b83f
00000630: 287a 362d b74e a6bf 25d3 9aa9 43c3 e2bf
00000640: 8652 9cb8 b386 e2bf ba06 478f bc55 dc3f
00000650: a07b ae9b 3f68 d83f 5d7f bdad 6758 db3f
00000660: f8e1 909d a6b8 9ebf e45b 2d63 ef3f ae3f
00000670: fec0 9bd8 293f dabf 260c acc0 8054 d1bf
00000680: e6d0 0ee4 55af ddbf d01a f71b 5d51 c23f
00000690: 4617 9f89 805f d8bf 6c9c b498 2e90 ce3f
000006a0: 74be 5153 8c55 e03f e80a 8cde 1972 be3f
000006b0: 2aae dd1d 23e1 d83f 8e11 93c7 7eb0 d2bf
000006c0: 30b6 7fed 429b c33f 424d fa6a 0383 c63f
000006d0: 1784 2cff 0126 cc3f 671c 7905 41de e13f
000006e0: 6e41 b6ab e535 de3f 06d9 469a 7985 eb3f
000006f0: 3d8f 6dd0 272f afbf 8077 ce96 8a70 983f
00000700: 4a4c fa3b 80b6 b5bf eaa5 d4be a873 b93f
00000710: 09b7 1ae3 68aa c7bf ae55 693f 7f5c e0bf
00000720: 1a3b 76c1 da94 d73f 90d2 0caf 80d6 a63f
00000730: fad5 9d1f 482a d8bf e71f 3bc5 1d24 dd3f
00000740: 16b3 9c8c 17e1 b8bf acda a201 bda1 dcbf
00000750: feff 2020 de9a c8bf 2216 869f 83ac d7bf
00000760: f8e7 4b0c c5c1 b73f 9c41 b747 c6a8 adbf
00000770: 9841 0a68 2791 c8bf d0ac e2d4 4b57 bcbf
00000780: 4549 2324 17da c9bf 5aa3 fde1 d77f d13f
00000790: 02bb 9e81 9ed2 c23f 0619 1201 827d c4bf
000007a0: 6409 2cbc 4ebe bb3f c010 bc83 a794 e0bf
000007b0: cca1 cdb6 0fcf a8bf 9018 9a7e 02b3 de3f
000007c0: a410 66ac 9370 b2bf 55b7 e69f 1fae c73f
000007d0: 2d4e 03c3 d1e1 eabf c2c5 4305 32c0 ad3f
000007e0: fb47 ab63 dd8d c4bf b54a 5533 e7c3 d3bf
000007f0: 1414 637b ce17 ad3f 0453 4d6f 8f1a 9c3f
-0.359630935305451 0.2252297404962589 0.07609959735188282 -0.17066867903571453 -0.19206335107567138 -0.4170357880122742 0.5640432013608929 0.49389137716696807
0.030124628786809698 0.005817418169059216 -0.16679419564987583 0.4039657688984619 -0.7984478160208579 0.3002406425659463 0.13560200348542636 -0.6536309648892851
0.09780294084983976 -0.06872054731940383 -0.19221548601570676 0.12473777858629065 -0.13659455073038787 0.15493357275103048 0.03930624574293623 -0.11725868569569842
0.04497230536687623 -0.48558083774735766 -0.38522332128381187 -0.23547394723199278 0.04363009492657703 0.5875982344051566 0.5423861333852782 -0.019857835440166074
0.06362318711385165 -0.045489934992533794 0.1651692165268192 -0.020687053663269755 0.4801842888739234 0.03834608867434594 0.0862201625483966 -0.29598150661520517
-0.17239108651566862 0.19102980433314853 -0.03445028150547403 -0.3920002259762852 -0.28291046442692547 -0.2797392589442012 -0.34404801633185966 -0.3288550146297015
0.07090367835186298 -0.22832456806970222 0.433423072421096 -0.017348418605491744 -0.7734826759969747 0.27803079062858344 0.3174762464239971 -0.5788396307715772
0.14514073265301464 0.46189549744629166 -0.3041116768030988 0.21910952496501512 0.2675956154363996 -0.056515976031072154 0.07075040531286733 0.2857580450474756
-0.046074449856009725 -0.038968688686823294 0.22468587500337672 0.16625707732397907 0.328105557308315 -0.016691256786776118 -0.2789124869585425 -0.6262821220885488
-0.48132584883327173 0.6128623642277581 0.044135722904268385 0.3779534592578611 -0.4449370452623413 0.3605144803557978 -0.3861936334069179 0.2626441270788475
0.20901097524387352 -0.3252353737066314 0.29225461854927426 -0.32784281839784235 0.3904718853227914 0.3132490050698267 0.3961323754778103 0.21633636676381848
0.08510905180193784 -0.17641032697956127 -0.22984658344016087 0.07207737364251005 -0.5010839194737289 0.6118861224250258 -0.6074769437334133 -0.2371512405288616
-0.11635827408888091 -0.5300310649318608 0.11477900254950434 -0.2232199836016789 0.15889972170868405 0.8732012694768065 -0.12515833022686576 0.8098610471225549
0.33971424476556733 0.1276311566816798 0.05564732045255705 0.07884930831519546 0.7036038504020367 -0.204836568416634 0.25524430802292175 -0.045969860581096395
-0.5319129908394564 -0.45259564806648633 0.2061944416110308 -0.740524916113541 -0.08338779543663813 0.308008386124093 0.30871677848600915 -0.7936530635553389
0.11078348722989045 0.04755819880842976 0.1319229499754433 1.0708788620390781 -0.10810783484169154 -0.0306458491869879 0.3520260704897207 -0.47105368575998646
-0.33354784329674086 0.09235435521797186 -0.08273467505920035 0.12729895378242756 -0.027016232597253415 0.3159504575999761 0.12376585708274815 0.22367807736011425
-0.41074103151305946 -0.09319632815835782 -0.15828831647593392 0.19621431845337042 -0.5433654793816305 -0.4051167885511026 0.1908731706114617 0.1452764249944539
-0.45085128247747663 0.44275163130256967 0.14482394782869765 0.1418395514672385 -0.38766917319927763 -0.4588229304471448 0.3629848120399308 -0.04486719364049947
0.03551060562741322 0.0766152738014475 -0.060829889265982595 0.5600860128946342 -0.011555005441031163 -0.0814209870023536 -0.2095933200822987 0.35445833948274647
0.020411216033763096 -0.006675209232442789 -0.4601463590934939 -0.03352418471457279 -0.023998582806578295 -0.19532620287141175 -0.43331594446019406 -0.102801925877691
-0.17565761419691786 -0.24664998176718875 0.09264356083873092 -0.12499277018820537 -0.2679049794835203 -0.09454290309778067 -0.3109775745331282 0.014842715012160695
-0.40375628129358027 0.632695436847466 0.18394282369448928 0.7660183875974798 0.49938390478953576 -0.04788043339589332 -0.5289226174440739 0.013847748025993006
0.029646202507959435 0.09216806178395569 0.24184253190624846 0.0303917950402538 -0.11125434304318775 -0.04284525207429833 0.1710513343678437 -0.2852853444865521
-0.2363451586455943 0.34870582013378026 -0.28381855947972995 -0.195041851573513 0.11775698970671272 0.09735514790549141 -0.04356930186189728 -0.5863359749406284
-0.5789431195904207 0.44273294441164135 0.3813628216102476 0.4272708126718408 -0.030001262061178452 0.05908153615626313 -0.4101051917377986 -0.2707826501429643
-0.463826630318421 0.14310802331438888 -0.3808289855918371 0.23877508598636454 0.5104428889589614 0.11892854388501528 0.38874128262134156 -0.2920224141091915
0.15317570301651662 0.1758732101776364 0.2199099060026419 0.5583806139847071 0.47203962105506647 0.8600433362214808 -0.060906643097750714 0.023866811232089002
-0.08481599296855893 0.09942106875373438 -0.18488799180106977 -0.5112911451821469 0.3684603585506224 0.04460527550546545 -0.3775806721453986 0.45532936344943525
-0.09718463118469986 -0.44737172279148285 -0.19222618645471806 -0.36990442827695535 0.0928004412670872 -0.057928272489905924 -0.19192974643784733 -0.11070703456305186
-0.20196809067290125 0.27342793530856613 0.14705258683303418 -0.1600801949718475 0.10837261289637962 -0.5181462834302906 -0.048454752983903754 0.4796758877131504
-0.07203028639748027 0.18500132854154097 -0.8400658425184183 0.058106959479015355 -0.1605793701806418 -0.3088319779682636 0.056822254716770854 0.027445069473588837
