es_outputs/nn_from_s3/checkpoint_00100/top_k_models/rank_2_weights.npy (npy, 167552 bytes, 1 tensors)

array f8 [20928]
-0.00777993280227629 -0.3959876693378157 0.6473695683102443 -0.010777538672041564 -0.2660188411043724 -0.04737544864535653 0.440524575320132 0.11710429564398914
0.11397187912314163 -0.24194241033899738 -0.26521025491076833 -0.30627156736826344 -0.24050226921974305 0.058300293466580326 0.3789734812162394 -0.3490422827685903
0.07969964884438113 -0.19558622787124674 0.6463500394663605 0.2807229751558537 0.5986249069181335 -0.17525953982042133 0.33291815032520955 -0.18898660919756555
0.04911129480710552 -0.2580438388908224 0.5228120117927633 -0.006817294605203701 0.1781644184718939 0.7230743727454529 -0.07600888394163241 -0.17811320023917757
0.10410644070636468 0.05574141661769583 0.4228715030044803 -0.3228076430569474 -0.30627973499300953 -0.20629065415522907 -0.16415193004313572 0.23014146034481062
0.5282611379540894 -0.1280584497348064 0.08099077800648394 -0.020161015340509975 0.3781375491079013 -0.5045706837337253 0.03849290993288995 0.2214154646973257
0.4717878895997557 0.16889358597578208 -0.24443467855776824 0.20618343264891892 -0.10405453688047495 0.3389542121254142 -0.2537199670984839 -0.6367261959341773
-0.23745617917104633 0.8683317969282032 -0.27343692132342834 -0.06668996596804627 -0.04256912317447564 -0.07730616345626057 0.5768836938637123 -0.04815247050653221
-0.028826148388605505 -0.16903169742623525 -0.47683416138055434 -0.12310943218984226 0.017310282914014763 -0.30574722128814447 -0.6294592117554039 -0.15530980620530455
-0.3120138521078603 -0.04219593526734988 0.3743440567076123 -0.08577423447130005 -0.09998844644558844 0.35012234126057773 -0.435851624749742 -0.7162151210098422
-0.07970872723197678 0.3556935129401486 0.20278294232625155 -0.10308656512713382 -0.3397688655213303 0.11299641368109936 0.13192021870751972 -0.163087510524362
-0.15563412710994634 0.0779933805639198 -0.12920081036722889 -0.09980867065513249 -0.11330073497948162 0.07361045965868612 -0.7270489477199507 -0.09399464000102048
-0.17432314405068544 -0.24427890600368615 -0.5081573867131965 -0.3629495856767204 -0.09229542571739 0.5132127267957536 -0.783124827362233 0.5251915641703194
0.01693178425994145 0.03462253497815654 -0.14407783943288832 -0.2578221597908464 -0.45243787349282405 -0.18676019874246488 0.2353474469837465 0.1193162084796078
-0.29757979305943183 -0.5496913519797841 0.10175229980895048 -0.3049542235587314 -0.38455064464107314 -0.21702610824937746 -0.1763138988058443 -0.6629321406094171
-0.1566871553758791 -0.18686261186818295 0.2663988819489803 -0.3671725956337064 0.38501699423105945 -0.5567257344002771 0.015970191859312866 0.13145519401171618
0.05574658891610092 -0.4082135448673667 -0.04207338590600082 -0.2705870812253645 -0.2539768301546568 -0.2674319410772098 -0.08411647787807779 -0.24210836289190826
0.013822415090558177 -0.3107877740175423 -0.21306560335944755 0.425193041398102 0.003999086955226688 -0.02840673527766363 0.6010029463848705 0.22075803199331678
0.36647369999766866 0.3404837965115691 -0.3802149372758785 0.1234651208784935 0.33513115466755 0.1283683908036332 0.6469823360760746 -0.09759375293857422
0.39093575911555845 -0.8792336064423326 -0.2042393712481346 -0.05305842984773205 -0.4512613139011432 0.16250912274966875 -0.09025486698629287 -0.40756597719643656
-0.13072882596861046 0.7334009333199991 -0.2255892871932636 0.3593325564715387 -0.1579725061256205 0.028603902186356667 -0.38862011127081875 -0.03276272992314772
-0.2292515599688112 0.43296087906939745 0.0019183234133718086 -0.05389093295619061 -0.03637436847784196 0.31800917902776255 -0.24675685768877603 -0.05452706701030784
0.5243420389967639 0.32051684518410123 -0.10339567690157114 0.38790449350841855 0.18183953801369004 0.007599663390918637 -0.15768362649306894 0.478149284212225
0.00756518634966076 0.050169467893383876 -0.32281960842627955 0.06842816196394713 -0.13675885955174683 0.054340264962504735 -0.3271995776710106 0.15982229793127017
-0.8270138798125242 0.1156168156321254 0.05788774662421706 -0.36811953006747344 -0.2533604935773551 -0.02106863861961708 0.2060279137026335 -0.11318720719227046
-0.20508529989182248 -0.3462587720967885 0.2172132676527474 0.22912041627171714 0.3504573652045728 -0.023587276980623767 -0.41749509177661803 0.6839875867748275
-0.22816352022912623 0.06288801328382077 -0.7652810211372449 0.06580201454312265 0.20378973190198846 -0.5618670390464069 0.15972165672890204 -0.5989025399212657
-0.4588923453961754 -0.7201228432007676 0.29345962954634247 0.3112612948482757 -0.6317314807956008 -0.23137781067727264 -0.1809478828472852 -0.25798592321248215
0.08664663420863998 -0.3394808717826911 -0.23538676050250515 -0.6836560478739887 0.11461728996399169 0.11846054678852937 -0.4463608551220193 -0.30733267046330304
-0.1921348432166945 -0.427535896545821 0.014700759876277766 -0.0071583661594271444 0.08513721818921621 -0.27781937543386176 -0.5518506191453791 -0.08543906587710252
0.0025592174856349514 -0.3311028797084592 0.12988196483584089 -0.28008298022026323 0.17903382389408906 0.07978475457530368 -0.010485724232196826 0.030807414448811347
0.3332075637568747 0.5227867393224617 -0.10804463854342909 0.46103347312631393 -0.5525752005445939 0.2594717227399926 0.1682822453998775 0.5336301872810962
00000000: 00b3 36cf d9dd 7fbf 2836 5baa dc57 d9bf
00000010: 2e2e 8a62 40b7 e43f c0b8 05c1 8812 86bf
00000020: 3b70 aae3 7306 d1bf 3859 2145 9841 a8bf
00000030: 7264 05fd 8d31 dc3f 9e15 0310 8cfa bd3f
00000040: fe5f 7fd5 422d bd3f a2f0 f509 f8f7 cebf
00000050: eaf4 d96e 34f9 d0bf 84a5 620f f499 d3bf
00000060: 8ccf 7442 c7c8 cebf 3784 923b 89d9 ad3f
00000070: 4e00 f8fc 1941 d83f ca62 5a71 b556 d6bf
00000080: a40f 4a39 3267 b43f 1ea4 2032 f808 c9bf
00000090: add7 2847 e6ae e43f ffee 617f 5df7 d13f
000000a0: 081a b96b ef27 e33f b19c eb93 e76e c6bf
000000b0: c20f f9ed 874e d53f 4e57 f194 b630 c8bf
000000c0: 6018 1f9a 1d25 a93f a01a 3e4e ca83 d0bf
000000d0: 6863 9341 e0ba e03f 4856 0696 73ec 7bbf
000000e0: f4e5 5277 17ce c63f d28e f0dd 6c23 e73f
000000f0: f019 bc76 5175 b3bf 75af 01d1 69cc c6bf
00000100: 4a05 233e b8a6 ba3f d0b9 cf92 238a ac3f
00000110: 8c22 f4a2 5310 db3f 0205 7563 e1a8 d4bf
00000120: d03d 4e51 169a d3bf 8c98 886e bb67 cabf
00000130: 6e26 8e31 ee02 c5bf f73b d17e 4675 cd3f
00000140: 7e56 e8e6 83e7 e03f ac31 cb22 3864 c0bf
00000150: fac0 d0c6 cfbb b43f e5a4 2ad6 16a5 94bf
00000160: c4b6 b3d5 6733 d83f c303 256b 7125 e0bf
00000170: 284b 94ba 57b5 a33f 6a11 da89 5757 cc3f
00000180: 32b5 1ed5 c531 de3f 3894 2216 4e9e c53f
00000190: 40fa 34b3 a249 cfbf c820 1afe 3764 ca3f
000001a0: c8ed e670 51a3 babf eee2 fa01 6db1 d53f
000001b0: 8aee 41ac f23c d0bf a566 819d 0f60 e4bf
000001c0: d0e9 e2cd f664 cebf 0246 bcc3 5fc9 eb3f
000001d0: 5e98 a692 fd7f d1bf 44da cdf6 9712 b1bf
000001e0: 2821 b5bf 9ecb a5bf 1ce9 d233 56ca b3bf
000001f0: b4b0 d7ca d475 e23f 6825 18cc 70a7 a8bf
00000200: 9812 6512 9a84 9dbf 1c6e 37a6 d4a2 c5bf
00000210: 2eaf 2f6e 7384 debf efa1 1589 1984 bfbf
00000220: b034 006c c9b9 913f 10a1 11cb 5c91 d3bf
00000230: 06f9 14a5 8724 e4bf 4c2f 3315 31e1 c3bf
00000240: 83f1 acf2 08f8 d3bf 50ab fea3 b49a a5bf
00000250: eab6 40c6 40f5 d73f 87c7 e4db 4cf5 b5bf
00000260: ae2e 76c3 d798 b9bf 5e0a 5489 6768 d63f
00000270: cd59 8d36 fee4 dbbf 206a 34f9 3beb e6bf
00000280: b2c8 aa88 ca67 b4bf f08b 5eb9 aec3 d63f
00000290: fa2b bd9c caf4 c93f 84c5 e091 e163 babf
000002a0: 9d3d 67e9 c5be d5bf 185b 533d 55ed bc3f
000002b0: e1d5 8300 c3e2 c03f d449 0b32 0de0 c4bf
000002c0: b613 0aaf d1eb c3bf a896 d3ca 5ff7 b33f
000002d0: d16c 92f3 a689 c0bf f42e 52a0 0f8d b9bf
000002e0: cc81 59e7 4601 bdbf 5ca9 e094 22d8 b23f
000002f0: 828c a127 fc43 e7bf bcbd cd60 0810 b8bf
00000300: 8219 5185 3850 c6bf 0bba 31fc 8744 cfbf
00000310: 9aed a447 d342 e0bf 4802 25e6 903a d7bf
00000320: 6ece 064b aca0 b7bf e051 af18 3d6c e03f
00000330: 219b 46cc 5b0f e9bf 35e4 078a 5ece e03f
00000340: 7c33 a3ce 9056 913f f820 df7e 0bba a13f
00000350: f0a6 3884 2471 c2bf e116 1f84 2880 d0bf
00000360: d8e6 87fb bdf4 dcbf 658c e518 c2e7 c7bf
00000370: 3203 ff79 dd1f ce3f 6279 4dcd 818b be3f
00000380: 5a01 c91d 8c0b d3bf d8b5 7451 1297 e1bf
00000390: 06e4 f84f 700c ba3f 878e 3db8 5e84 d3bf
000003a0: 74e7 984e 7a9c d8bf ea94 a7f2 82c7 cbbf
000003b0: fec5 992e 7491 c6bf a04f ec76 bd36 e5bf
000003c0: 4176 0520 530e c4bf 93d4 6833 1deb c7bf
000003d0: 825b 6ae5 ad0c d13f 28fd 8e7c c17f d7bf
000003e0: 8f1a a851 1ea4 d83f 9be7 c27c b2d0 e1bf
000003f0: 3083 fc6e 7d5a 903f 4ab7 9517 86d3 c03f
00000400: 0a34 8420 d18a ac3f 1855 3fb4 2b20 dabf
00000410: 0c1c ff90 a48a a5bf 7750 257a 4c51 d1bf
00000420: 102f dd08 2841 d0bf 4a46 35dc 9a1d d1bf
00000430: 5b82 8a51 a888 b5bf 77bb 5a26 68fd cebf
00000440: 101f 2026 ed4e 8c3f 16ba 5967 f2e3 d3bf
00000450: 2f69 2ad3 bb45 cbbf f0a9 d2df 5c36 db3f
00000460: 2025 fcba 5861 703f 90c8 03bc a716 9dbf
00000470: a2b9 f087 6a3b e33f 8ccc de97 cc41 cc3f
00000480: ee61 151b 4e74 d73f 6a72 b58c 7cca d53f
00000490: dc3c 4308 7155 d8bf 49ac 5e00 699b bf3f
000004a0: f9bd 4af1 c972 d53f 85be 2b1c 606e c03f
000004b0: 5d2a d14c 14b4 e43f b242 2a79 e7fb b8bf
000004c0: 9c3f 0f6b 1705 d93f b5d8 2684 ae22 ecbf
000004d0: db7d 0806 8424 cabf b53c f279 792a abbf
000004e0: 14f2 4922 77e1 dcbf 1378 c153 19cd c43f
000004f0: 24ce 0266 f11a b7bf af57 c19b 8f15 dabf
00000500: 04ff 16e0 b8bb c0bf 84e3 ee3b 0578 e73f
00000510: ae58 6919 1ce0 ccbf b6bb 9bfa 4dff d63f
00000520: 7f04 bd6d 7138 c4bf 80aa b661 574a 9d3f
00000530: 9077 1ee3 26df d8bf 095f 18cb 46c6 a0bf
00000540: 58bf 4f78 1d58 cdbf f33a 038c a1b5 db3f
00000550: 8095 b514 086e 5f3f 8d0e 32a5 9797 abbf
00000560: c5ca 0c46 a99f a2bf 9321 f02b 435a d43f
00000570: 7223 eb8c ba95 cfbf 8fb5 1cc3 f8ea abbf
00000580: 0017 adf4 68c7 e03f f57f f815 5983 d43f
00000590: 400c d79a 2378 babf 3bc4 655e 6dd3 d83f
000005a0: edbb 719a 8446 c73f 60fa 971b d320 7f3f
000005b0: 2e82 7321 fa2e c4bf 3807 9374 ff99 de3f
000005c0: 90e8 5b3f acfc 7e3f 7638 b8ff cfaf a93f
000005d0: 88b2 2c93 13a9 d4bf 04b3 c20d 8284 b13f
000005e0: e843 9b76 5081 c1bf cb67 bdb9 7cd2 ab3f
000005f0: 0c2b 577f d6f0 d4bf e6a7 649b 0e75 c43f
00000600: 7040 e4cf e576 eabf b5f4 014a 1099 bd3f
00000610: b427 2e75 76a3 ad3f ee27 aa37 458f d7bf
00000620: 95d7 80ee 0e37 d0bf c8b7 5e67 0493 95bf
00000630: e73c b567 1f5f ca3f 8664 3739 d6f9 bcbf
00000640: 517e f62f 3c40 cabf f9f6 868d 1a29 d6bf
00000650: 48b5 69f4 a4cd cb3f b2d0 5d5b d153 cd3f
00000660: c08a 8cba e46d d63f 7813 ef5c 4327 98bf
00000670: 30f3 5a55 3db8 dabf cc2b 82ef 39e3 e53f
00000680: 4c1d c354 7634 cdbf e04a 5dc8 6d19 b03f
00000690: 2216 c19f 2e7d e8bf b23f 799c 66d8 b03f
000006a0: 84cb e32c c815 ca3f 14f3 ac95 d0fa e1bf
000006b0: 8c89 0e5e c271 c43f 6080 cea8 352a e3bf
000006c0: b21f f7ff 7d5e ddbf 6ecb 940f 3f0b e7bf
000006d0: 9f42 e6e5 0ac8 d23f c292 787e b4eb d33f
000006e0: 3fdd 3bf0 2437 e4bf f281 f0c0 c99d cdbf
000006f0: 0e05 8edb 4c29 c7bf a0a9 c163 d782 d0bf
00000700: ab0d 3c4c 792e b63f 8b26 7bfa 0dba d5bf
00000710: b383 2243 2721 cebf c39a eaa5 82e0 e5bf
00000720: 1195 f307 8f57 bd3f e1b0 522e 6e53 be3f
00000730: b8ac bd1e 2d91 dcbf 7c76 28a6 56ab d3bf
00000740: 50d6 04e2 df97 c8bf 1af1 6185 bf5c dbbf
00000750: d8e1 2897 6e1b 8e3f a8b1 c248 1752 7dbf
00000760: ac8b cb7f 8dcb b53f cfbf ebea cac7 d1bf
00000770: 5637 30a1 c2a8 e1bf a331 bea9 55df b5bf
00000780: 40d3 ee6c 11f7 643f 6c64 fd21 ca30 d5bf
00000790: 47b3 a7e3 f89f c03f 6e95 0d2a e1ec d1bf
000007a0: 3460 4091 94ea c63f 02cd 9e0f c66c b43f
000007b0: b49f 3715 8a79 85bf ceba 2096 fa8b 9f3f
000007c0: 2f66 47d1 4553 d53f b684 8541 abba e03f
000007d0: f35a 0d3d d0a8 bbbf 8415 5c8a 9281 dd3f
000007e0: f46d dd2f b2ae e1bf 4dec d948 2f9b d03f
000007f0: b5b5 3eca 458a c53f 32fb 509d 7f13 e13f
