es_outputs/nn_from_s3/checkpoint_00200/top_k_models/rank_2_weights.npy (npy, 167552 bytes, 1 tensors)

array f8 [20928]
0	0xbf9e1b6e8ea7f10a	-0.029401519257576537
1	0xbfbce6dd39f40464	-0.11289770760414936
2	0x3fe6856c7e5fd2ef	0.7037870853660858
3	0xbfe1733092cc6d28	-0.5453112475546833
4	0x3fd48f5252f07ba6	0.3212476549105595
5	0xbfe730bb2e17cfcd	-0.7246986294035139
6	0xbfd636498a7806c7	-0.3470634319529435
7	0x3fa641b90241906c	0.04347017433681874
8	0x3fca84c684a30ef1	0.20717698551572242
9	0x3fc36a655d7d2a78	0.15168444695366978
10	0x3fb6eaba2283e7f9	0.08951915114076305
11	0xbfb6b87b5909acd8	-0.08875246928953417
12	0xbfe2a2dfcfc3b534	-0.582382112302787
13	0xbfdc309050715807	-0.44046409469353914
14	0x3ff07dfa120d32e8	1.0307560639513955
15	0xbfddd395d8691d69	-0.46603914388511797
16	0xbfce1cb3767eb630	-0.23525088582884868
17	0xbfd86470c6faa372	-0.38113040381954655
18	0x3fabb2519769eb48	0.054094838841555914
19	0x3fd4374d9c2cc198	0.31587543727348466
20	0x3fb0792dc9d34034	0.06434904267666824
21	0x3f793ce53e12cfa0	0.0061615900787507505
22	0xbfe632c140f7d780	-0.6936956662091092
23	0xbfcd8e36d3e4eac1	-0.23090253206631497
24	0x3fde875afc668ca9	0.4770114388322307
25	0xbfe5abfbcf7307bb	-0.6772440959687097
26	0xbfddc7cd143db590	-0.4653198907534142
27	0x3fd09f6743748d0c	0.2597292097800199
28	0xbfdd4eedf349d938	-0.457942473970792
29	0x3fd94f9262aa3eeb	0.39548167834526166
30	0x3fc827f1e62d269d	0.1887190221698817
31	0xbfdf538765cab9fa	-0.48947319927802335
32	0xbfe29b8f27bf97ea	-0.5814891601883094
33	0x3faeb341171332e8	0.05996135145833198
34	0x3feb1ac8a55593d1	0.8470195035157478
35	0x3fd2fc34792c07d9	0.2966433699913274
36	0x3fd6220421794ec4	0.34582618016177613
37	0xbf829637391997b0	-0.009075576238682576
38	0xbfe22d314a613a7f	-0.5680166676264234
39	0x3fd7c9f22c20f7e9	0.3717008048005242
40	0xbfbce412caa5d3aa	-0.11285512397246458
41	0x3fecabf339f0f0d9	0.895990002790792
42	0xbfc5082dbcabae97	-0.16431209289963952
43	0xbfb2b8385702bc0e	-0.07312347530636051
44	0x3fb67d51a03b139b	0.08784971391567213
45	0xbfc975d0efe7533e	-0.19890796388667725
46	0x3febf7988282b8f8	0.8739740895305479
47	0xbfdef9a0b6fee412	-0.4839860713069025
48	0x3fe558f237985c74	0.6671076856463416
49	0x3fc77e96bcfc19b6	0.18355068424007265
50	0xbf91a8846a9523ac	-0.017244404797825005
51	0xbfcc8b1a222a9cda	-0.22299505871089914
52	0xbfc143aca9e8b458	-0.13487776085222225
53	0x3fd6855239823745	0.35188727966384575
54	0x3f9650fa2a6f8838	0.021793278541629685
55	0xbfcd6132f3c5bbe6	-0.22952877905797137
56	0x3fabd15f738483b6	0.05433176312568071
57	0xbfc5da7eaba376e1	-0.1707304323271535
58	0x3fa0401fa278d5b8	0.03173922403622548
59	0x3fca5e3136b91046	0.20599951908127617
60	0x3fb43c5d53bc994c	0.07904609007218716
61	0x3fb325ff7c4a871d	0.07479855331851266
62	0x3fe4ee34b386cd18	0.6540778643015157
63	0x3fcf7ce9f968c132	0.2459995715921735
64	0x3fc90593ddc6e7ec	0.19548271492914127
65	0x3fb41e561e149324	0.07858789667495764
66	0xbfee5597e7e65c91	-0.9479484109205193
67	0xbfd8f1f4f66c6e44	-0.3897678762893728
68	0x3fb7553f932bc9ac	0.09114453642886272
69	0x3fe3295a46102486	0.5987979286593521
70	0xbff10304af3c327b	-1.0632368893740523
71	0xbf938915795beef4	-0.019077621013805904
72	0xbfe3d102cfed0c01	-0.6192640362791054
73	0x3fc729b06f4fac40	0.1809597533714129
74	0x3fd18d3bfc71b3d9	0.2742452588343532
75	0x3fd468b60a704f4c	0.31889105815320273
76	0xbfd07cea2269c0a6	-0.2576241813722028
77	0x3fe18f2986296c23	0.548725854906824
78	0x3fe524311107e272	0.6606679279930872
79	0xbfc2a729715a7e14	-0.14572637591207693
80	0x3faa84b06f4b40b8	0.05179358824318697
81	0xbfb35602e7f9981a	-0.07553117907954779
82	0xbfe072cf419153bf	-0.5140148430460768
83	0xbfd2c23137a365e1	-0.2931025546400559
84	0xbf8ad1a7e2ab0d50	-0.013095199208129543
85	0x3fe84342cbac1563	0.7582105615589793
86	0x3fc27d1a1bc0b34b	0.144442809630528
87	0x3fe108d8dbca7522	0.5323299687185321
88	0x3fdcd8333048e375	0.4506957980661846
89	0x3fd7166f973fc769	0.3607443787615155
90	0x3fc3761d97cad696	0.15204210197196194
91	0x3ff05a50789dc6ba	1.0220493995260953
92	0xbfe46fe061fb8758	-0.638656798717629
93	0x3fd04a1ee0bbe4a3	0.2545239634196809
94	0xbfd0cb4ee9730501	-0.2624089507845185
95	0x3fdd83498bec56a0	0.4611381403386563
96	0xbfee5a5691bb9348	-0.9485276075689422
97	0xbfccdf119255c4a8	-0.22555751462235674
98	0x3fe13fc9150548c7	0.5390363131102952
99	0xbfe258cb00015442	-0.5733389854527859
100	0xbfe0583055e4c82a	-0.5107652356730388
101	0x3fd3fb6db8dfe5e2	0.3122209840217619
102	0xbfede34393d3d776	-0.9339921843772874
103	0xbfa0548f7fd55860	-0.031895145754490484
104	0x3fd49fcebd0da09b	0.3222538801405876
105	0x3fc1a1b91246a72c	0.13774789230711215
106	0xbfe03a1adcdb8513	-0.507092887270263
107	0xbfd9b387c4190354	-0.4015826621071501
108	0x3f9a2edca0576158	0.02556938866277511
109	0x3f4f5cb276a12e00	0.0009570952800088128
110	0xbfe6a28db4245017	-0.7073429602046443
111	0xbfaf618da00aad80	-0.06129114702829508
112	0xbfe350468221c3de	-0.6035492459906171
113	0xbff28b43fcdaa2e8	-1.159000385008932
114	0x3fde0509569c1821	0.4690574022100709
115	0xbfe02eabcdf5e130	-0.5056971571603182
116	0x3fc95020e3d36147	0.1977578270368758
117	0x3fbf21f657e90c7a	0.12161197324989984
118	0x3fba46607ec66784	0.10263636679738225
119	0xbfc10d541bb58922	-0.1332192549990135
120	0xbfd891c05c90eb2d	-0.38389596023232536
121	0xbfe0ea2cc0377123	-0.5285857919912228
122	0x3fc6a6c0223efd1b	0.17696382209940328
123	0xbfd322592689ec9e	-0.2989714504580635
124	0xbfbd4708f31f6790	-0.11436515746700437
125	0xbfd37375b0d155f0	-0.30392210261683683
126	0xbfd1e18b71f81291	-0.27939115648067864
127	0xbf815cc519e39a20	-0.008477725842067463
128	0x3faaad29392418a8	0.05210236380121219
129	0xbfe11c61f80b2e63	-0.5347146839716966
130	0x3feabaac46d9a42c	0.8352872260849202
131	0x3fd31ac68f9df964	0.298509254694997
132	0x3fdb69ddaf34af96	0.4283365450853521
133	0xbfbc5f0bb790e174	-0.11082528335180603
134	0x3fd7dbee03921336	0.3727984461659618
135	0x3fdb3b021ef031ee	0.4254765798694099
136	0xbfc52ffad28949d7	-0.16552672653285924
137	0xbfee8bdace4edae4	-0.954572108216635
138	0xbfb024171eb4c0da	-0.06305069446239334
139	0xbfc9d09d95b33be5	-0.20167894181801596
140	0xbfe06f71423e73c7	-0.5136038106753568
141	0xbfdd9f607db9c7fa	-0.4628525951185335
142	0xbfdbfa74851e0ffc	-0.4371615695929447
143	0x3fd6945db4ddc7de	0.3528055444977535
144	0xbfe3873dfad1ce2c	-0.6102590464419726
145	0x3fd190ed1d622192	0.2744705950686007
146	0x3fb788f35abeb4b0	0.09193345036938427
147	0xbfdbd827a8bec8fc	-0.43506804923084963
148	0x3fe0f3dda8f7afbd	0.5297687816760043
149	0x3fbd897ab12fecd4	0.11537901712283666
150	0x3fc308d924ba1765	0.14870752614313712
151	0x3fdb73500d28d1cf	0.4289131287107723
152	0x3fccc23ccaa4a2ff	0.2246776570766755
153	0xbfb3d6077424b103	-0.07748457513361377
154	0x3fe56bdf98382171	0.6694181416542461
155	0x3fb58ab3e1304828	0.08414768455284671
156	0x3fd01d19be7b250b	0.2517761573950145
157	0x3fd95b7d9851ef59	0.39620914340024666
158	0x3fcd943964e04c4e	0.23108594346612893
159	0xbfcb92dbc47b0e5b	-0.21541926473411163
160	0x3fda1aa27f78544c	0.4078756565880368
161	0x3fd15eaa2f4de8af	0.2714028799015393
162	0xbfd7835b33f5f75b	-0.3673923499517195
163	0x3fcfe571a4c504df	0.24918957276717088
164	0x3fde5e620c506df5	0.47451068117672374
165	0x3fddd68c77691dd0	0.46622001324837203
166	0x3fb2ab9fedb8c4eb	0.07293128541711595
167	0x3fa6e6f364fb4c6d	0.04473076446233724
168	0xbfe3437dcde0b0e4	-0.601988699059373
169	0xbfccf8e712f60c37	-0.2263459055503476
170	0xbfd3f18de9a222f0	-0.31161830726391226
171	0x3fa20a39099c50d5	0.03523424379651067
172	0xbfd2bf685e194564	-0.29293259801223415
173	0x3f87850fee5fba64	0.011484264814467689
174	0x3fcd00307562e508	0.22656827670815738
175	0xbfe103c0aff7dc72	-0.5317080914382031
176	0xbfd2b59eb87679d6	-0.29233520521111467
177	0x3fd1502ec6896ba3	0.27051896465644115
178	0xbfe35786d1cf747f	-0.6044344041689697
179	0x3f40f46034049680	0.0005174131147540201
180	0x3fc113c2cd17b396	0.13341555609022454
181	0x3fdd988009856c4e	0.46243287019541846
182	0x3fd3875a6bbb5f4f	0.3051363040990411
183	0xbfd17e432220704e	-0.2733314355152786
184	0xbfde5dc5707f34ad	-0.47447334276223324
185	0xbfc1adef83bf493c	-0.1381205933854036
186	0xbfcaa06f76113140	-0.2080210997104448
187	0x3fdd4777c0f5c7fe	0.4574870476127443
188	0xbfb3ed6dd391310a	-0.07784162917340978
189	0xbfda417f00dcb6a2	-0.4102475651187466
190	0xbfdd29e1aa26daa8	-0.455681244052736
191	0xbf6d8af1768c81e0	-0.0036062923503694527
192	0x3fbe354ccb2dfba4	0.11800079307975736
193	0x3fdbbf9f5df2d7a8	0.4335707108942821
194	0x3fe13d14f88e7d87	0.5387062887784148
195	0xbfd39f0c4e762305	-0.3065825239396392
196	0x3fd550e544fa1bfa	0.3330624745944416
197	0xbf8c31794c5afee0	-0.013766238825496158
198	0x3fb4179e932b2899	0.07848540394766913
199	0x3fd58b965d55faa8	0.3366447364314049
200	0xbfe0b779cc683720	-0.5223969452215194
201	0xbfc8c161bd7cd262	-0.19340154411624427
202	0x3fe75e7b4b8cb39d	0.7302834010675842
203	0x3fe098da0c82f7d3	0.5186586613051481
204	0x3fbf189facab0e2c	0.12146947827846394
205	0x3fb8fcaa49448d08	0.09760536469234549
206	0xbfb3dca7bb263e40	-0.07758568114353981
207	0x3f69694f58eb9a80	0.003101973510058642
208	0xbfea0198414d89a2	-0.8126946711966421
209	0xbf861968169576b0	-0.01079064673347871
210	0xbfe33dcb2ad05e92	-0.6012931667527985
211	0x3fa73c9966c472d2	0.045384210390897586
212	0x3fe104ca432f1a5f	0.5318347274959015
213	0xbfddb4bf656c0a1e	-0.4641569605302339
214	0x3fdfc7aac01f3f0f	0.49656170617980505
215	0xbfdcead3cb28945e	-0.45183272208880065
216	0xbfd6afd6ae2c042a	-0.35448233612993596
217	0x3fc1149ee98a11f5	0.1334417953804771
218	0x3fdf2b34f567b301	0.4870121380361497
219	0x3fe898cbd582e760	0.7686518831389826
220	0xbfd75759416fe9a2	-0.36470633879039316
221	0xbfcaae6ef671c5c9	-0.20844828637522841
222	0x3fdfa0ab3eae190d	0.4941814529523903
223	0xbfc0fbd996b51867	-0.1326858507038111
224	0x3fbd2e4fd44071bb	0.11398791248252042
225	0x3fc22d2fdf46ef18	0.14200399782372908
226	0xbfd4521f92af80cf	-0.3175124104000248
227	0xbfcd9d345bb93357	-0.23136000136073662
228	0x3fd46a42edd1e978	0.31898568367582625
229	0xbfb473383977ed22	-0.07988311198271394
230	0xbf939fa307c47e28	-0.019163653706639888
231	0xbfd0c0968e6dd173	-0.26175464543418697
232	0xbfdec8b8f50462a2	-0.48100112845853904
233	0xbfc5ffeaa82cd56c	-0.17187245570827814
234	0x3fb4a8749eaf5e15	0.08069542764803146
235	0xbfbe921b31a76405	-0.11941690408947643
236	0xbfcff0c66a00665c	-0.24953537155015482
237	0x3fa34e93568c366c	0.03770885879030747
238	0xbfc75cfa99b7bade	-0.18252499109026749
239	0x3fa2b159d105cad8	0.036509329572160076
240	0x3fa45cf6e10438de	0.03977176186354979
241	0xbfb42719a315bdd4	-0.0787216208607256
242	0xbfd5c35ddbffb138	-0.3400492332864533
243	0xbfc34572c9059ebf	-0.15055689635777544
244	0x3fc6e9ff3a207370	0.179016021139343
245	0x3fa5a246f4266b98	0.04225370149943969
246	0x3fd15730e20d38b1	0.2709467132125481
247	0xbfa4f1d7c02b18a6	-0.040907613952684316
248	0x3fdfabe0e89cef8e	0.49486563411823503
249	0x3fe351235ad23873	0.603654553780656
250	0xbfc558658a742f88	-0.16676015148584278
251	0x3fe2ab1b06642b12	0.5833869099454623
252	0x3fd1aa66395736e7	0.2760253486602395
253	0x3fb70e40117744a4	0.0900611918107353
254	0x3fd1c44157d821ef	0.27760346964399124
255	0xbfc52f37b74aed45	-0.165503468035107
