es_outputs/nn_from_s3/checkpoint_00200/top_k_models/rank_3_weights.npy (npy, 167552 bytes, 1 tensors)

array f8 [20928]
00000000: 4aed ab52 e6d2 cdbf 3882 1699 b5a5 dcbf
00000010: 82c0 682d 38de dc3f f497 b787 b43b b6bf
00000020: ab03 5915 eeca dabf 7e8c 7853 b969 e7bf
00000030: 7896 a824 4430 efbf cd2a fa7b 8120 a93f
00000040: b3e3 0929 4c77 c3bf 0016 4f25 49af 93bf
00000050: abf1 2021 561f d1bf 7c8c cd79 9ea8 a83f
00000060: 5e59 69c4 4c88 c9bf ca87 5f74 a6fe c83f
00000070: 3d53 2c78 032a e63f 8888 5c86 8ff6 eabf
00000080: 4cb5 f81b 3f64 b83f 669a eaaf fae6 c63f
00000090: 7c46 1b0b fe91 a43f aebe 2c2d de31 d03f
000000a0: bd10 1974 d4e3 e23f 2c36 b512 2808 cbbf
000000b0: e819 790f e309 ae3f 7499 6baa 25d4 bebf
000000c0: 78e7 5acf c206 dc3f 0a12 3882 aa02 d9bf
000000d0: b4d2 4b40 ea9f cfbf 0535 dc16 0f49 c9bf
000000e0: 1083 7d22 4352 d1bf 2662 1c36 880d e63f
000000f0: ef34 8718 0999 de3f aa7e b986 42aa c9bf
00000100: acdb 68bf 1d07 eabf 51ef 11c5 3962 e23f
00000110: b499 f46d 39ee db3f 025f b76d e3e9 d23f
00000120: a438 e9a3 b730 d53f e20b 03ce 1cc0 b5bf
00000130: d45e 5fe6 1b3b e8bf 4e9d 05a5 7457 d13f
00000140: e63f 6846 aa4a d33f f39a 4b77 6d59 dd3f
00000150: 046e 8633 7deb ddbf 47fe 434c cff8 d3bf
00000160: e3a3 6cae 3306 b63f 144f 61b6 c0c2 d5bf
00000170: 487b 97b9 43e3 c3bf a0ec f4f8 7992 a63f
00000180: 9e7a 4ba1 2944 d23f 7e91 7ccb 683e e13f
00000190: 7291 6f13 27f3 d13f 6042 5abc 2e0f ac3f
000001a0: 0762 e2f9 931c b8bf 80fd 4fec 1241 c7bf
000001b0: f88e bb49 bba2 823f 19bc 59d6 1ed0 cf3f
000001c0: fc64 b343 9ead bdbf b045 87ba 7ef9 863f
000001d0: 5a7c fed2 821e e63f 04d1 30d6 d18b e23f
000001e0: 7952 5106 f0ac c43f dc7d 8ce6 2d21 c8bf
000001f0: 7037 1808 532e a23f f05b 529e 1fc2 be3f
00000200: fe0d 1d3a 2af9 b5bf 4842 f0f2 c164 b33f
00000210: b40e c06e 0dc8 e7bf 43d5 0365 84d4 e6bf
00000220: e999 aeb1 eb6c e63f 76eb 65a6 ddd7 e23f
00000230: 2501 0a5d 68a5 d2bf 74c5 2d41 9355 e0bf
00000240: 2e1f c470 2069 e1bf a842 c51e 6832 d63f
00000250: e457 4f46 8933 d8bf bc78 89ed a563 d23f
00000260: f015 7fb7 9fb6 e7bf 3695 357c b22f e13f
00000270: 5d90 22a5 8f17 d6bf 8311 a06d 79b9 d0bf
00000280: eb56 9265 71a7 be3f 7e9a 3966 99c1 ca3f
00000290: 0aca 9a18 aeaf d23f 24fb cec7 2f85 d8bf
000002a0: 90f1 f7c0 991e c1bf e23c 0055 53df f43f
000002b0: 3a52 46b6 43a6 b8bf bcba c289 69a9 e13f
000002c0: 1466 d4bc 3236 d83f 7ecf 4656 13fc c03f
000002d0: 00b8 3d82 939a d43f 8284 e900 b1cc da3f
000002e0: e5cd 0150 ce3b e2bf 88c0 cb75 e2b6 ad3f
000002f0: 2830 4b9c 1282 bdbf 80f0 0f02 7801 9d3f
00000300: 214a 1a0d aff8 e9bf b9e7 a76a d452 d2bf
00000310: 0498 f14b 2762 c53f a54a b65e 90a2 d4bf
00000320: 4ca5 6340 d99a dbbf 8c63 3c61 5d04 b73f
00000330: 3872 a93d a1e3 ebbf b4e3 2a12 5926 d0bf
00000340: 1023 bdef f87c d53f faf7 495c ef57 c0bf
00000350: 38fe ff72 14d2 d9bf ee9d eaf6 7ded dfbf
00000360: 0268 218a 8213 e83f 9757 0ca9 7175 dcbf
00000370: 1abe 280c da3a d0bf 259f ae70 f5e3 e3bf
00000380: a057 c322 387e c1bf 1308 c974 75e7 debf
00000390: 5cb2 12b7 6959 c43f 4e71 900d 72dc e3bf
000003a0: 5fdf cb4b a8cb d6bf b439 dc81 0914 c7bf
000003b0: 2654 3d9d 98a6 d43f da4f a7fb fa16 d3bf
000003c0: 3420 da82 b723 eebf 24c8 d3c8 ac85 c1bf
000003d0: 4180 fedb 8894 d23f a190 7816 e16f d43f
000003e0: 5ecf 2063 987a ccbf 7229 badd 18a4 d1bf
000003f0: a82e b6b5 8196 a03f fe10 e363 ee34 b7bf
00000400: f2a7 660f bd66 db3f 9a91 9f3d c3b2 cebf
00000410: 14b5 4c23 c996 e83f 00c9 64c3 267f 81bf
00000420: 22da 9f1b 7148 d03f f030 2409 ffbc cdbf
00000430: 60e9 e290 d75c d93f 7850 5696 f775 b93f
00000440: 84db 45ad eeaf dfbf ebea 9b95 a990 e7bf
00000450: 0e39 aff4 20aa c53f 186b a4e5 8160 b43f
00000460: 7801 f560 d53c e9bf c630 727f 2105 b93f
00000470: 388f fd86 76e9 d6bf 0303 c4b3 f0f9 c63f
00000480: 9895 02e4 ef61 e1bf 6892 62c2 5e57 d83f
00000490: 4481 a8a9 ba54 d33f 7ce7 1501 12df b03f
000004a0: aa4b 6b92 8190 d33f c00b 416e ab0e c2bf
000004b0: 26a6 e5ea 0f8b bdbf 2443 3f19 25fc db3f
000004c0: 126e 8b6c 77af d83f c6b4 4341 dad8 d2bf
000004d0: 0074 2e04 4987 e33f de4b 5fd0 3170 e73f
000004e0: a2fc 8e44 6104 d23f 2a14 8b84 394b b13f
000004f0: fe53 4141 eaed d33f 12e8 37bf bd15 dbbf
00000500: a0f2 eafb eb5a 983f 0543 e40e 98b8 d03f
00000510: acf3 d92f b806 e1bf c08f b8ef 1446 db3f
00000520: d332 6404 106d b43f 7ea4 892b e3e9 de3f
00000530: 4431 c8a4 a457 d43f a0b2 33cb 9d6c ac3f
00000540: 8485 aa20 c3e6 d6bf 9d5b cfda b598 c93f
00000550: cd1b c525 0f48 e0bf 892e 0735 5379 bfbf
00000560: 9569 89f8 8935 b1bf 6c04 0e19 1889 b1bf
00000570: d789 13aa 1087 d4bf fa81 f0d1 b44d bfbf
00000580: 5039 ee85 5002 e33f 6052 f19b 8cb7 c33f
00000590: e49f 1e81 4e5c d6bf add5 ad5c 3354 d33f
000005a0: f7f9 fc3a 1519 c33f 601a 4008 9dc7 d83f
000005b0: 7edb ed9d c89c acbf 2344 9363 34de c3bf
000005c0: 0670 d6c0 3287 d5bf b042 1696 2608 afbf
000005d0: 84a3 fe47 998b d3bf 4755 a859 212a e43f
000005e0: 7ecf 69b2 b5bb e3bf 0d95 f952 3ae3 dcbf
000005f0: faf9 2ac4 cf40 c33f e379 0474 0e72 d53f
00000600: b7fa 37fd c3fe bd3f 7d11 c9b9 0046 ea3f
00000610: dc18 17bd e41c d1bf 48ef 8d34 7cc6 b0bf
00000620: 15fb 7bf8 ab96 d03f 3ca3 4265 c92a 95bf
00000630: 8bc5 8c38 6d7e c6bf 34f5 804a 632b e0bf
00000640: 14fa f284 baf2 c1bf ca6c 3827 97f2 c03f
00000650: d7e6 1973 fd61 e53f cb5a d4cb 2516 d53f
00000660: f13b 73ff 6fed cc3f 00c2 ecf9 61fa 43bf
00000670: 3c76 d70d 62d3 dbbf f100 f4ef 3bba bcbf
00000680: ba05 59c4 437f ebbf 64f8 221b 282f a13f
00000690: 5ac2 a133 7a7c e6bf 9e65 1731 e508 b6bf
000006a0: b878 04b6 2ffe d73f 5e7e f843 b91a ddbf
000006b0: 7cc2 cb4f 8f61 ba3f 324e 8dbe b10a b2bf
000006c0: 7d75 a737 6d64 d0bf 06ea 6348 58bc b63f
000006d0: c0a8 7a6b 1e4c e13f 7c8f 5dda 14aa e03f
000006e0: 056a 0dd7 41b2 a83f aaf8 a394 7dd2 bfbf
000006f0: 1c22 1777 2f79 d23f cce8 66e1 d46d a33f
00000700: 712e 1bbb 361d d23f 2a74 35bf f13f b63f
00000710: ba08 0470 ce3d e4bf 081a c5a5 d610 aa3f
00000720: 600c 193b 6826 dd3f aac9 d934 ab01 eabf
00000730: 1071 aed0 66e8 87bf 76a7 b69f ad02 c63f
00000740: e2e4 cfad 3b0c debf 34fc 7371 a1c7 acbf
00000750: bac9 ac63 e8a4 c73f c039 11d1 60ee a3bf
00000760: 2256 41c0 ba2a f1bf 94fb 9f51 60a5 a83f
00000770: fc1a 1364 9a9f d7bf f72b 249f 4976 d5bf
00000780: b1a4 6d68 4278 e7bf 582a ad05 9e4f b4bf
00000790: 87b0 4fd4 98b7 d4bf 06c9 491e b8aa c7bf
000007a0: 5e56 ed67 b044 d0bf e0e9 ca1c 1300 d2bf
000007b0: 7824 6504 41cd d33f 5a82 6dad 5b1c c63f
000007c0: 2093 c130 9f65 c83f 2597 d8fc 97c6 e03f
000007d0: d8ef ef80 a723 c6bf 81d7 5590 8ca8 d93f
000007e0: 4149 8487 4699 c83f 55c6 2282 8c21 dbbf
000007f0: a015 68e9 0f46 9cbf e494 cce6 d23f b53f
-0.23299864803980547 -0.44761409711830735 0.45106319841853104 -0.08684852898986134 -0.4186358650659325 -0.7316557531634229 -0.9746418682086206 0.049076124557435465
-0.15207817081298244 -0.01922334947791704 -0.2675376246950473 0.048161461227913954 -0.19947204199224705 0.1952713077762936 0.6926286074764004 -0.8425977348563416
0.09527964051149701 0.17892392720860356 0.04017633328988965 0.2530436936531072 0.590311266664251 -0.2111864177081072 0.05866918147926353 -0.12042460833217722
0.4379126572563261 -0.39078772274686513 -0.2470677198358736 -0.19754208198757098 -0.2706458889788772 0.68915186470537 0.4780905475170831 -0.2005084188303859
-0.8133686769932544 0.574490437414605 0.4364150594505205 0.29552541460496695 0.3310984707540092 -0.084962654395937 -0.757215452143067 0.2709628688375759
0.30143219829278534 0.4585832276338088 -0.4674981120276416 -0.3120611424237478 0.08603213318259821 -0.3400117665344038 -0.15537306367965642 0.04408627666494991
0.2854103160042686 0.5388683294627723 0.28046585939434643 0.054803333751924255 -0.09418606615725632 -0.1816733983869021 0.009099448382989803 0.24853883234342858
-0.11593045380449846 0.01121806151141666 0.6912244912126753 0.5795678313648129 0.16152763660888406 -0.18851255185380367 0.035509676683530667 0.12014958968425993
-0.08583320540224545 0.07575618916622162 -0.7431704676714248 -0.713442036909932 0.7007959814407602 0.5888508081401216 -0.29134568296287205 -0.5104461930297206
-0.5440828516447931 0.34682658200203287 -0.37814552179531646 0.2873320407578708 -0.7410429557718867 0.5370724130595252 -0.34518805624452914 -0.2613204546508074
0.11974247674728715 0.2090331792016577 0.29197266009137535 -0.3831290675406527 -0.13374635622302522 1.3045228309963979 -0.09628699493470885 0.5519302073133399
0.37830799522780123 0.13269273483967575 0.32193458289009413 0.4187433728130331 -0.5698005259168296 0.05803592384279549 -0.11526600185169456 0.02832591545664842
-0.8116069084083543 -0.2863055268822979 0.1670579071825956 -0.32242211579538554 -0.4313262108613187 0.08991035102770989 -0.8715368465742079 -0.25234057211087735
0.3357527104567888 -0.12768356329246427 -0.4034472582861528 -0.4988703643125224 0.7523815820561597 -0.44466821201910406 -0.2535920256368357 -0.6215769959280563
-0.13666440675177416 -0.482877124832272 0.15897866667855254 -0.6206598534513803 -0.35618026163091615 -0.1802989849169997 0.3226682220022802 -0.29827761245291884
-0.9418599658683946 -0.13689193540591404 0.29031583293727087 0.31932856745175725 -0.22249131050341026 -0.27564069417044046 0.03239827483329566 -0.09065141619345593
0.4281456613922493 -0.2398304034133048 0.7684064568944984 -0.008543303335134755 0.2544214982766865 -0.23233020731311838 0.39629162930545725 0.099456285670671
-0.4951130573385216 -0.7364089891483138 0.16925441691859827 0.07959758621693103 -0.788675965661283 0.0977345405719375 -0.3579994505182529 0.17950257089253094
-0.5432052090952082 0.3803326509753675 0.3020464569872454 0.06590378309729589 0.305694954860139 -0.1410726822233226 -0.11540317044059431 0.4372647043756379
0.3857096252447444 -0.294485629782525 0.6102643090886204 0.7324456281443152 0.28151733107729104 0.06755408750457606 0.31139618275238934 -0.4232019774786987
0.023784339190330628 0.26126672224295105 -0.5320702490422398 0.4261524525666083 0.07978916270458151 0.48302535297131743 0.31784931270592076 0.055516177229809616
-0.35783460798310096 0.19997285064775108 -0.5087962854093974 -0.12294502300863476 -0.06722318952362223 -0.06849814044655184 -0.32074371918693373 -0.12227945447421709
0.5940325370627679 0.1540389787138734 -0.3493839512761936 0.3020141987866179 0.14920297031672167 0.387183435494455 -0.055883664396723084 -0.15521864759514967
-0.3363768466167588 -0.06060906011692191 -0.30539543181162565 0.6301428557514236 -0.6166637882838442 -0.45136888602276387 0.15041539267072307 0.3350864537223101
0.11716866428467197 0.8210452679273171 -0.26738851991502854 -0.06552864344660947 0.25919627443356436 -0.02067103081268161 -0.17573323498940527 -0.5052963690901948
-0.14021998874336872 0.13240327277239877 0.6682116745061774 0.32947678475595116 0.2259960172000031 -0.0006096819305181911 -0.4347767958805411 -0.11221670730811063
-0.8592852435032718 0.03356290179498059 -0.7026949890551564 -0.0860732312061345 0.3748893048776938 -0.4547560848022608 0.1030511445822046 -0.0704756822790891
-0.25612955508207574 0.08881141440716797 0.54054184906024 0.5207618966055487 0.04823499441291194 -0.12430558089178825 0.2886465704910124 0.03794732333649761
0.28303306839072834 0.08691321294959722 -0.6325447261626984 0.05090971730765054 0.4554691865088838 -0.8127037079087149 -0.01167373966546184 0.17195673273573292
-0.46949665044628663 -0.056210560893298483 0.18472008578244276 -0.03892805626002227 -1.0729320058793594 0.04813672062299826 -0.36911639950669417 -0.3353447012056558
-0.7334301032652971 -0.07933986319145825 -0.3237058709480682 -0.18489743689458055 -0.2541924490845754 -0.2812545567682303 0.309402708332136 0.17274042099144787
0.1906012523715157 0.5242423952483689 -0.17296308322681742 0.40091241927381566 0.19217759720829444 -0.42392265995576867 -0.02761101591206272 0.08300512442345426
