es_outputs/nn_from_s3/checkpoint_00200/top_k_models/rank_1_weights.npy (npy, 167552 bytes, 1 tensors)

array f8 [20928]
0	0xbfa17e422b3c2c35	-0.034166400697437295
1	0xbfc7ab26c300724f	-0.18491062661714117
2	0x3fe2b4a36a2702be	0.5845505784310132
3	0x3fdf5e1d03e2ecf1	0.490119222445812
4	0xbfb1421da41c8c2e	-0.06741509682301292
5	0xbfe80dc381cc1b9e	-0.7516801390746541
6	0xbfe0a81193fc7972	-0.5205161943775194
7	0x3fce4f62902805ea	0.23679763831027795
8	0x3f936221a3585775	0.018929029078285937
9	0xbfe658d31c4bb6fe	-0.6983428528453428
10	0xbfc16f7da121617f	-0.1362149273652555
11	0x3fc908021b18438b	0.19555689166056953
12	0xbfc42f1206570cb0	-0.15768647489139687
13	0xbfc365abc60a607c	-0.15154025239894853
14	0x3fe6e7747c2fbf90	0.7157537866132646
15	0xbfc708997cb0d357	-0.1799499377099447
16	0xbfc37e485c78a6ea	-0.1522913409729008
17	0xbfd210ed31350b4e	-0.28228311353102675
18	0x3fb90ec1f4f5774e	0.09788143377724376
19	0x3f7955c842b2a880	0.006185323970536172
20	0x3fb002dba060b9e4	0.0625436083362057
21	0xbfb7b182991fb8fd	-0.09255233991982333
22	0xbfd88906c6dc1342	-0.3833634321202234
23	0xbfc53495b237d76f	-0.16566725923592737
24	0x3fd10eb154c43d20	0.26652177122100973
25	0xbfe605fc61939048	-0.6882306962766132
26	0xbfe0d0b4abce202f	-0.5254767757005591
27	0xbf6e8fef8eebd260	-0.0037307433007021523
28	0x3fb7ef7626d18252	0.09349764297213284
29	0x3fe801288382cbc4	0.7501413887570085
30	0x3fd73bfc7b485b43	0.36303627051659165
31	0xbfd858a49fe1dcd7	-0.3804103432989456
32	0xbfd119a03733b3d2	-0.2671890772897402
33	0x3fc3843be3ce0496	0.15247295974044012
34	0x3ff53abddafd010a	1.3268412164907795
35	0x3fc9f3cf0d3be85a	0.20275295396988008
36	0xbfcc62cf0f4b81b6	-0.22176540610145218
37	0x3fbc886315371859	0.11145610111188499
38	0xbfe4ce20cd2752b9	-0.6501621252924316
39	0xbfb91a11cb73fa9c	-0.09805403916468908
40	0x3fc032774d86d3f4	0.12654010091287626
41	0x3fe2da967ceda2da	0.5891830863957594
42	0xbfc9f652915aad7d	-0.20282966706632158
43	0xbfd8401e518dec32	-0.37891347851081314
44	0x3fb6dfba895b0f80	0.08935132840548299
45	0xbfd49f48780b9bc2	-0.3222218677823855
46	0x3fe309f2cf78766b	0.5949644138488116
47	0xbfc5b594a5ce8e80	-0.16960390182531526
48	0x3fc657dc77be58b7	0.1745563111005077
49	0xbfa4b67cc547c970	-0.04045476825912686
50	0x3fa47bdb4d393672	0.04000745122594375
51	0x3f89b0da5c0f642e	0.012544351515247323
52	0xbf85da80c812b5c0	-0.010670667749162699
53	0x3fda3e956d9132d8	0.4100698060981762
54	0xbfad20bc3df9657c	-0.05689037567635588
55	0x3fd8d5276bdd8a63	0.38800988706331035
56	0x3fda33eb82a81d01	0.4094189430183662
57	0xbfd01947248cd306	-0.25154284066529475
58	0x3fe1d75b7764f052	0.5575387317580953
59	0x3fe5a31215193b9e	0.6761560833054892
60	0x3fb0758b454a581f	0.06429357949886637
61	0xbfef9a5ec6ce9ad7	-0.9875940211248587
62	0x3fda16c41c36f9f3	0.40763952975603884
63	0xbfebb639bce4e2c9	-0.8659943284356696
64	0xbfd7c6bf8968d116	-0.3715056268586222
65	0x3fe3dcf8001a41c1	0.6207237245562781
66	0xbfdcfed40031e7d5	-0.453053474607825
67	0xbfe5ec5e76a71666	-0.6851036374507202
68	0x3fe6dea8bd28b7ca	0.7146800703537732
69	0x3fdb4a7e4fb21214	0.4264217165257673
70	0xbfe072824ebb48d8	-0.5139781511045625
71	0xbfb034a612072c5e	-0.06330335559975839
72	0xbfdb7d71f5ab297f	-0.42953156462740333
73	0x3fd9a92f19c0b964	0.40095117106365863
74	0xbfc51668979a5e1b	-0.1647463550805107
75	0x3fe8dad57f14e8c9	0.7767131311477665
76	0xbfe101d87b1e614c	-0.5314752964650693
77	0x3fe672aa89f81b76	0.701497334929498
78	0x3fb7e5504c037e6a	0.09334279876520105
79	0xbfe5013de0000c1e	-0.6564015746120082
80	0xbfa39aacae76edd0	-0.03828944806761181
81	0x3fcf9f36cdcef8ea	0.2470463280605551
82	0xbfdd8c908e12471c	-0.46170438646469036
83	0xbfd4acf0e5e017d8	-0.32305548142210005
84	0x3fa648c105222d04	0.04352381885208881
85	0x3fe5083b9e49b830	0.6572549907266474
86	0xbfd9b559511f6bea	-0.4016936580862295
87	0x3fe7d35e979fd734	0.7445519410527823
88	0x3fe6837aa0032fcb	0.7035496831172109
89	0x3fc7b8741d12bb4f	0.18531657619083794
90	0xbf8008c938a95960	-0.007829258004829753
91	0x3fdb641fba5cfa87	0.4279860801652053
92	0x3fa776d69f1dd388	0.045828539775278065
93	0x3fad50f819b0e3de	0.0572583705292755
94	0xbfe68efdb0df6b1a	-0.7049549536271542
95	0x3fe79833385cb494	0.7373291111777172
96	0xbff0a5f00f5edba9	-1.0405121422206582
97	0xbfe28db95fc2cf8b	-0.5798003073054913
98	0x3fe6e4d3dfe88d1c	0.7154330609522819
99	0xbfde069b80142b1b	-0.46915328509992243
100	0xbfdbed86367e3e52	-0.4363723308715396
101	0x3fdb2202caaedeb1	0.4239508609129912
102	0xbfe7e2a3525cdb22	-0.7464157684943056
103	0x3fd4c28efcef0ae0	0.3243749113136527
104	0xbfa05b8d3d9d06b4	-0.03194848420254229
105	0x3fd5a95e0e62356e	0.3384623661484828
106	0x3f96b2dad5217000	0.02216665197225609
107	0xbfd19f3a833bd898	-0.2753435403423139
108	0x3fc9822f9c40cab6	0.19928546075387538
109	0xbfc1c9308a0fe3a7	-0.1389523195391835
110	0xbfe75f511950a990	-0.730385350650339
111	0xbfcee559949d6c3b	-0.2413742042216159
112	0xbfe0db054152661b	-0.5267359042947563
113	0xbfe5aca31310b4ec	-0.6773238537186024
114	0x3fda0609cbe017e3	0.40661854657844126
115	0xbfde7db93a0ec0f8	-0.47642355603876707
116	0xbfb6470f4573183c	-0.08702178426310153
117	0xbfd4079d54838043	-0.31296475652016315
118	0x3fd7dd3bba2856ff	0.3728780096001713
119	0x3fcd992c91aa39ae	0.23123700249238993
120	0xbfddbe13771bdc4a	-0.46472632056924523
121	0xbfd491b3e3ee77d9	-0.3213929868596757
122	0x3fdd1f8ffdf95c14	0.45505142023233813
123	0x3fa4d72ddcb9c24a	0.040704186624570385
124	0xbfcfbfce12ff2290	-0.2480409233815135
125	0xbfe0618f33bebae8	-0.5119091044087698
126	0xbf9e4fa1caf5d8c4	-0.029600646984783166
127	0xbfc7c2f7b8237024	-0.18563744059690734
128	0x3fc32a4b937c9752	0.14972824765680542
129	0xbfd0d6c3f40b71a4	-0.2631082423447657
130	0x3fc9face449dcdc2	0.20296648359690833
131	0xbfc54be2602be5c6	-0.16637830444214624
132	0x3fa1703d2e32969c	0.03405944050727536
133	0x3fb364725f15b058	0.07575144597439143
134	0x3fdac73f85b7b76c	0.4184111409984925
135	0x3fc9f9fa25a84e88	0.20294119681112854
136	0xbfb0c5858e4c3284	-0.06551394199432009
137	0xbfdfb02c67c91d3f	-0.495127774575355
138	0xbfb591ba6af01c41	-0.08425488577641806
139	0xbfc7c1e718124c39	-0.18560494113316553
140	0xbfe28a7b325431c1	-0.579404447840311
141	0xbfd0617447e36477	-0.25594813366257746
142	0xbfc575d74d8df1f1	-0.16765872275199414
143	0xbfd4893c7e3d8868	-0.32087623909149565
144	0xbfc54cb2aeeb0fc6	-0.16640313664367862
145	0x3fdb147b27fe3ca0	0.42312506585671805
146	0x3fd97da5756ba432	0.3982938429531401
147	0xbfdf8fe021e291aa	-0.49315646466336693
148	0x3f7938c8bb6e3cc0	0.006157669172252855
149	0xbfc2df546b3be305	-0.14744048343688845
150	0x3fcc9bc438bb789a	0.223503616048167
151	0xbfabf666f3ad0430	-0.05461427425917298
152	0x3fe153f57818d7d3	0.5414988847394347
153	0x3fbc1491f7457bb7	0.10968887602710607
154	0x3fdd872eaaae78a8	0.4613758723079493
155	0x3fa84800430d3dd8	0.047424324212098135
156	0xbfd349802530f02d	-0.30136111862134635
157	0x3fdc1eb978d4d55d	0.4393752746576263
158	0x3fce8e36acafe95c	0.23871501380910842
159	0xbfc9137f92379d3d	-0.19590754165185756
160	0x3fdabff64cc752ec	0.41796643731986083
161	0x3fd58efa46090333	0.3368516620576429
162	0xbfe2c842a4665b4a	-0.5869458399709881
163	0x3fd21823792bc82e	0.2827233012495779
164	0x3fb77fb346a41a1a	0.09179230188974721
165	0x3fc64ed579174dbf	0.17428081905982926
166	0x3fcf05a90f128698	0.24236024127917655
167	0x3fcfe1ae6fc3e84e	0.24907474953926328
168	0xbfd323abda469887	-0.2990522033309237
169	0xbfc5d1c765a0d871	-0.17046444380111184
170	0xbfd40d59ad6a0512	-0.31331483778929325
171	0x3fe1441a75099831	0.5395633970154049
172	0x3fbfd29ab4312188	0.12430731677262064
173	0xbf9870b45b2350d0	-0.02386743360769189
174	0xbfd3aebefcd18080	-0.30754065217298177
175	0xbfbaa778d6d179ec	-0.10411792034708583
176	0x3fd8e685584bc34c	0.3890698778405308
177	0x3fcb06e7d72e5aa3	0.21114824301613053
178	0xbfc2d4fb7f4bacf0	-0.14712470737081373
179	0x3fba699436f4e28f	0.10317350713456562
180	0x3fe092a375bc749d	0.517900209382464
181	0x3fe565e5a0e413cb	0.6686885969544333
182	0xbfb55ca8782f461c	-0.08344510015674483
183	0x3fd08cb333e72f3c	0.25858764713915483
184	0xbfde73cd593d7b16	-0.4758180018888408
185	0xbfdbe79cacd07ff2	-0.4360114753380905
186	0x3fbcb4ac5139782a	0.11213185294170161
187	0xbfc58a2f424b4042	-0.16827955948838463
188	0xbfcd31c0b40743b1	-0.22808083334396437
189	0xbfe79cf7a632fde1	-0.7379110570981845
190	0x3fb5a542ef2d080d	0.08455293978934737
191	0xbfae9bdd557d64da	-0.05978290241791635
192	0x3fd0f4f75de09315	0.26495155494403494
193	0x3fea67e3ef365405	0.8251819297898925
194	0xbfc0a3e7da80bfb0	-0.13000200432861453
195	0xbfcbfe0b4c65fd54	-0.21869031172171083
196	0x3fa75aabe9b96e98	0.045613643914035495
197	0x3faf72ea0c7c9d3c	0.06142360117365306
198	0x3fd5a01fbca896da	0.33789819167792035
199	0xbfd50c08b47dfdab	-0.32885949732004843
200	0xbfc85d400d0e8e06	-0.19034577024022797
201	0x3fb3c4920e18fbad	0.07721817821673822
202	0x3fecf7442257db5b	0.9051838560834357
203	0x3fe648c8fdc7bf34	0.6963849026342133
204	0xbfc80498e6de9dee	-0.1876402976315456
205	0xbf8b3139be3c0050	-0.013277484052650973
206	0xbf943ac36fe44b88	-0.019755414680797695
207	0x3f9114fab15d6ac2	0.016681592059607515
208	0xbff169bd25b149ee	-1.0883151504864332
209	0xbfbcf06a62e6f7b0	-0.11304345049481301
210	0x3fbe5d13e1e1aa5c	0.1186077524631996
211	0xbfe41cdd7a793926	-0.6285235778866862
212	0x3fdb30744dfef853	0.42483241669458954
213	0xbfd974232df6a536	-0.397713465582075
214	0x3fd5eee5e3e69135	0.34270617729113734
215	0xbfb3c097154a1d37	-0.077157442758211
216	0xbfbd9840ee6c34c2	-0.11560445614687168
217	0xbf958e6a398488ca	-0.021051082382776788
218	0x3fe10008217d854e	0.531253877077839
219	0x3fc1be7004b3cb34	0.13862419347386779
220	0x3fedb93fab5d57ac	0.9288633677449432
221	0xbfe2b2d28a06a4f4	-0.5843289085215972
222	0xbfc0789124d4f9c0	-0.12867941187319154
223	0xbfd75de229228de3	-0.3651051904400601
224	0x3faf1d6fc6f856c8	0.0607714586623565
225	0x3fbe8ef3ebd834ee	0.11936878688739558
226	0xbfc4dbccd2277549	-0.16295776616508764
227	0xbfe359f47925b4fc	-0.6047308317335189
228	0x3fd3822d7edd21ea	0.30482041729967924
229	0xbfd86f62f56a8d06	-0.38179849592616255
230	0xbfb8526712cfc303	-0.09500736436144668
231	0x3fc31a14b12a823a	0.14923342371641174
232	0xbfd59974ae5d625c	-0.33749119785128356
233	0x3fe174da3ea871cb	0.5455142234600826
234	0xbfa36e4210479cbe	-0.03795057724692573
235	0x3fcd8619a8c5c08e	0.23065491429179413
236	0xbfdfe5bbbad22cbe	-0.49839680904615224
237	0x3fc0c6c2c5337edd	0.13106569889986633
238	0xbfd1c560599ba606	-0.27767189741879894
239	0x3fc170b96b23e9f2	0.13625257235965155
240	0x3fc30abf01ffbeb5	0.14876544568641284
241	0x3fb0425f1d41eb1e	0.06351274933141979
242	0xbfc01d2479f6bbf4	-0.12588935809387147
243	0xbfdc87805fc43e8c	-0.4457703528614523
244	0x3fc49bd2f279cc0c	0.16100537147175975
245	0x3fc7abaeb331633e	0.1849268317189629
246	0x3fd96505ee50d9ce	0.39679096482305176
247	0xbfd0a2faa2ba48a8	-0.25994745150922904
248	0x3fc3fa6cbf811859	0.15607985831065
249	0x3faf2d060556af28	0.0608903771893366
250	0xbfd248a97f1af873	-0.28568494236595326
251	0x3fddec13ea68b59c	0.467534045138416
252	0x3fdd41448983f9b2	0.45710862569094524
253	0xbfdbc0b8b4d98d70	-0.43363778744806947
254	0x3fe5ecb191d21745	0.685143265539161
255	0x3f7152b0b5739f80	0.004229250210506907
