es_outputs/nn_from_s3/checkpoint_00200/top_k_models/rank_5_weights.npy (npy, 167552 bytes, 1 tensors)

array f8 [20928]
-0.3982527903834282 -0.2696262942314413 0.4235666288776975 -0.07913751510290648 0.5939020294258132 -0.19460523188445877 0.26413349442983514 -0.15106062372496515
0.08508223507380525 0.11818445034844191 0.27181990968521946 -0.0030031557544146215 -0.6648068538237633 -0.04671854898876582 0.6554713513134753 -0.6556954174801284
0.43857936125677305 -0.3809915659978498 0.7484480470078058 0.06580067673881784 0.41031519896771596 0.03688521238639089 -0.9099612007843587 -0.1863429725388896
0.38961322544255245 -0.2351456473506542 -0.3260979539187806 0.2353699145813809 -0.05872655509677921 0.7713326456569055 0.3398466543542261 -0.3365617715547654
-0.2770471285708955 0.46705541935389683 0.5380306726922108 0.21485066037056064 0.4667957596009091 -0.5208677160194629 -0.5765794756119395 -0.15593401927012007
-0.3282551096456101 0.567973410085166 0.011081460867634452 -0.225250842104043 0.362336037291838 -0.47200823382941026 0.346724760677829 0.15755858369141762
0.45361433920510136 0.2590889262002079 -0.5221209447818342 0.29086534895544797 -0.5653309602067177 -0.38080134297308216 0.3036693763263857 0.15205643361691895
0.20962312890662466 -0.10465364751132869 -0.18927043779174196 0.16765304208659135 0.3380447172874984 0.40956307594674735 0.784456020731883 -0.05512120269317171
0.05260707823459414 0.009758738610432596 -0.12963806506060194 0.24702067408833245 0.40454978141758136 0.554629323260327 -0.44480301446483617 -0.38745855778637384
-0.6040221851822443 0.28957716945855394 -0.059608396014833066 0.504270415941478 -0.9496108836585273 0.6018926332353919 0.281332434872065 -0.30844812257019316
-0.10377560753676135 -0.11690298835278055 -0.04495593111274722 0.0007634964145697698 0.05050040648449858 0.3805618058769987 -0.4356115282483657 0.946290334965379
0.4189863526299517 0.35720910365620173 0.6767027055531316 1.2205765299324598 -0.5460497839102492 0.4250441507652342 -0.09156211564749273 0.7235978011662271
-0.37104497992283514 -0.7452236088240128 0.4122353827040067 -0.22670514369526415 -0.3160723568608075 0.36406236677896187 -0.9012161028489858 -0.23022585748845745
-0.09091759826230478 -0.3199486019808385 -0.39802228192712824 -0.026694996111902514 0.6350238245519385 -0.25009476919113627 -0.452398868391489 -0.45195891284478296
0.2626847806641782 -0.5972863559834239 0.17498921330846332 -0.24208182187494492 -0.4074286454093442 0.049356482986266006 0.709820714897933 -0.4053341900927166
-0.22833116766355235 -0.19555679059304898 0.11605814467896328 0.476717102984198 -0.343441548224351 -0.6592038534429305 -0.11593436383497673 -0.31437792431670014
0.23147690867913412 -0.18274297144745077 0.607913367274068 0.25048040676379163 0.052807422842494844 0.28974283052267774 0.20972363695480728 -0.04466382806326577
-0.23051484638913688 -0.5623796491433357 -0.03343725836309565 -0.13666290923129054 -0.7514969199337966 -0.3379248637038208 0.045301370760155085 -0.43101326053870537
-0.3311679289719779 0.3878523590610585 -0.1534512914452444 -0.06550399265176765 -0.14962846450293152 -0.04849715384841653 -0.2156426954259627 0.3154074717089368
0.2850126795204009 0.2509894346792633 0.27903896484757224 0.46095979630640693 0.12475065372170034 -0.015216437551800382 -0.08643605873746157 -0.20785153097034453
0.22901666812147486 -0.44861358796010076 -0.6649574135616216 0.38962452111478785 -0.21782893166521158 0.05819925805279608 0.4222974372452709 0.3213055843979301
-0.4004729286831225 0.28791131388001595 -0.32731719601642284 -0.21883532008134265 -0.10593920791904038 -0.40153186316059764 -0.5417363836157874 -0.0399374785678583
0.3272301077998273 0.21252229160108077 0.18781665724532443 0.08750452926899141 0.029145155796246658 0.3676139337389688 -0.2665558680202907 -0.0055332924835155145
-0.15001598706357308 0.06577038909096605 -0.04757393151761469 -0.11728103406941505 -0.6289235106122599 -0.322473489486556 0.20908641702500985 0.12266559318725515
-0.4795878783577429 0.2698981459877225 0.37635570664200846 -0.4279876267730023 0.03651670454620193 -0.07322553223000777 0.09085393410647274 0.0988789873057088
-0.5979708546340815 -0.12583815877202273 0.22865426015954193 0.6380253627432778 -0.0036511936224642993 -0.4678711439454891 -0.057278673139070715 0.16740014321124996
-0.9203143818042372 -0.21040361184942305 -0.3871441424581757 -0.07592033420655094 0.736578488680298 0.31967611729624545 0.18812540478426643 -0.5468736028267731
-0.052668231542741195 -0.03740641282839501 -0.008637799239949673 0.3768484209921891 0.27009938364435154 -0.28200227296605285 0.06399969453976029 0.288887783549489
-0.1968624665793367 0.08810369381772967 -0.214326555472668 -0.6093515105566956 0.49259119515201394 -0.000354418804272838 -0.10279492030188049 0.16298706622859638
-0.5583188452715346 -0.024272403313154573 0.2231694710944981 0.04513936190698066 -0.5418437558981579 0.18084158453548818 -0.3829577966030241 -0.31997603736110825
0.058604291526887606 -0.3986213177858031 -0.5906328721231853 -0.4245390445916085 -0.1512487761505511 -0.34624094215957124 0.7143849055589478 -0.03222998445325807
0.3654105161213522 0.39411902305267943 -0.020025054674272076 0.19713586929610255 0.07754218458201967 -0.9115244548094428 -0.05824537062684826 -0.44938263923983407
00000000: 4e34 8f45 f97c d9bf db67 f7a4 8e41 d1bf
00000010: 3f3a ad34 b71b db3f caf1 402f 5b42 b4bf
00000020: 432e 2dd4 3e01 e33f ec80 4901 d3e8 c8bf
00000030: 82ad 162c 90e7 d03f de58 4e5b f455 c3bf
00000040: e4d1 1c09 f3c7 b53f 5e6d 240d 5641 be3f
00000050: f1fa 9f55 7f65 d13f 800a 00f8 129a 68bf
00000060: 088d ea05 1946 e5bf 00f1 0b60 7eeb a7bf
00000070: d666 2b0e 9ff9 e43f e0da c6f4 74fb e4bf
00000080: 2519 532b af11 dc3f 48ce 0073 2a62 d8bf
00000090: 43ea 9451 49f3 e73f 28dc a52a 50d8 b03f
000000a0: 828e 27ae 9a42 da3f f4a5 cf59 9ee2 a23f
000000b0: 3eed bff3 661e edbf 2e6d 7226 16da c7bf
000000c0: 8159 574f 6cef d83f c37a 95a8 4019 cebf
000000d0: 56ea d7f3 c9de d4bf a46f cbf2 9920 ce3f
000000e0: f845 1833 6811 aebf c5df edcc c1ae e83f
000000f0: 8acf 862e 0cc0 d53f ae56 7a62 3a8a d5bf
00000100: bb69 2ae1 23bb d1bf f2d9 e269 3ce4 dd3f
00000110: 54a7 ee19 8c37 e13f 4f64 e8f7 3980 cb3f
00000120: b76e 5952 fbdf dd3f dd10 bbc5 f2aa e0bf
00000130: 1d8a e9cc 5673 e2bf 04ac 8c5c a5f5 c3bf
00000140: fc0e 2bb8 2102 d5bf 3f07 aa92 d62c e23f
00000150: a0ab 2580 e0b1 863f 94dd 1d04 05d5 ccbf
00000160: df29 957d 8330 d73f c85c ef05 6235 debf
00000170: ecc7 f40c bd30 d63f dc50 1432 e12a c43f
00000180: e17b f86f 0408 dd3f 1948 32b8 e994 d03f
00000190: 90a0 ccfb 36b5 e0bf e368 53b2 899d d23f
000001a0: d521 30f4 3017 e2bf b5e7 9598 0c5f d8bf
000001b0: 3696 07ae 516f d33f d6f9 c3d0 9576 c33f
000001c0: 82cf 9141 eed4 ca3f 72e0 77d9 94ca babf
000001d0: 1e23 3582 033a c8bf f71c 6ba6 a775 c53f
000001e0: ba76 554f 86a2 d53f d6c9 350c 4836 da3f
000001f0: 1533 4683 431a e93f b647 c4a5 d838 acbf
00000200: 1684 1ca1 50ef aa3f 28c7 74b9 63fc 833f
00000210: b841 e0e8 fa97 c0bf f697 529a 5f9e cf3f
00000220: acb7 32c4 24e4 d93f 6ec8 99fe 85bf e13f
00000230: d679 1210 a777 dcbf fcdb 8ffa 1ecc d8bf
00000240: 7851 6d55 2654 e3bf 0a89 1fae 6e88 d23f
00000250: 65c5 e6de fd84 aebf 0be3 19b6 fb22 e03f
00000260: 2ea6 275d 3663 eebf eb60 ee56 b442 e33f
00000270: a917 c5c1 5901 d23f ace6 bc31 9dbd d3bf
00000280: 1430 7ec8 0991 babf ffa4 c7af 5aed bdbf
00000290: c2ec c7bb 7604 a7bf 00d9 ca10 ac04 493f
000002a0: cc3d 9274 30db a93f 5a4c 96e7 1f5b d83f
000002b0: 8096 e52c 0fe1 dbbf 5d4f 26ab 0248 ee3f
000002c0: 9705 8122 acd0 da3f ec5b 8292 83dc d63f
000002d0: b4e4 ae6e 8ca7 e53f 8733 6541 7b87 f33f
000002e0: 843c 7c65 3d79 e1bf 3723 b961 ec33 db3f
000002f0: 6830 4264 9d70 b7bf 35ed 6e93 b627 e73f
00000300: 7644 8771 33bf d7bf 4166 832e dfd8 e7bf
00000310: aaef bd83 1062 da3f 33c9 0095 ac04 cdbf
00000320: 7cc1 f88c 873a d4bf a647 c13d cc4c d73f
00000330: cead 0b27 c3d6 ecbf 2fa1 4d78 0a78 cdbf
00000340: 04df 2a2f 6046 b7bf de26 7ab3 097a d4bf
00000350: 2534 fd72 3279 d9bf 40e3 11dd ee55 9bbf
00000360: 9334 d47b 1d52 e43f fee6 a47d 8d01 d0bf
00000370: 6049 1f62 1af4 dcbf ac75 7313 e5ec dcbf
00000380: 5603 87d3 d3cf d03f 5b77 a946 f81c e3bf
00000390: dd03 28ea 0b66 c63f a659 f481 89fc cebf
000003a0: 5226 df98 4f13 dabf 3a0e 8bc0 4045 a93f
000003b0: 9c51 90ee d9b6 e63f 0187 99d0 fef0 d9bf
000003c0: a5df e2a8 f439 cdbf 8cce 0d42 0108 c9bf
000003d0: 22a1 d48f fcb5 bd3f 22b4 b073 8882 de3f
000003e0: 3684 6d42 f2fa d5bf f2e7 fdad 3218 e5bf
000003f0: cb5e 27dd dfad bdbf e392 e195 c41e d4bf
00000400: f62c 470c 09a1 cd3f a467 f826 1f64 c7bf
00000410: 98c9 e7bb 0674 e33f 79b6 d5f8 de07 d03f
00000420: 006a 3014 9309 ab3f 911a 5683 258b d23f
00000430: 3aa4 f560 39d8 ca3f f418 b161 2dde a6bf
00000440: 60ed 3daf 8281 cdbf ea35 209b 03ff e1bf
00000450: 1259 4636 b01e a1bf 00c0 dc92 2b7e c1bf
00000460: e421 c544 430c e8bf 243e 879b 8fa0 d5bf
00000470: e4f6 c1c3 bd31 a73f 00fd 89a4 b895 dbbf
00000480: eacb 1af8 da31 d5bf 1cff 75b3 92d2 d83f
00000490: 20a5 24bb 4aa4 c3bf 485f 32a2 dec4 b0bf
000004a0: ef9e cb88 0627 c3bf 4ac0 7473 9ed4 a8bf
000004b0: f8e6 3c0a 2e9a cbbf f8d9 f9d1 a22f d43f
000004c0: a011 5fd2 a53d d23f 97b1 65fd 3510 d03f
000004d0: fd1e 153f c6db d13f a809 7a84 5d80 dd3f
000004e0: b7aa e3a9 a8ef bf3f 5041 2cad cb29 8fbf
000004f0: e4f7 786d ac20 b6bf f677 f803 e19a cabf
00000500: 160a e90d 6b50 cd3f 4c1c 35c4 15b6 dcbf
00000510: 705b 0fc5 5447 e5bf 5a17 faaf 9bef d83f
00000520: 41f6 cf84 d1e1 cbbf 78f8 f90b 4bcc ad3f
00000530: 96cb 89d4 eb06 db3f c6b8 404c 4590 d43f
00000540: 8726 e834 59a1 d9bf f7d5 5093 236d d23f
00000550: f6c5 13d3 c3f2 d4bf 70c2 7ab7 cb02 ccbf
00000560: 3c5d 60f9 d41e bbbf e2e8 24b3 b2b2 d9bf
00000570: 18dc 558a e755 e1bf 7ad4 aa68 af72 a4bf
00000580: 7613 d18c 56f1 d43f ba7e 0c32 ee33 cb3f
00000590: 7aa0 4150 600a c83f 4652 7663 b266 b63f
000005a0: e043 ed4b 3ad8 9d3f 389e bd97 fc86 d73f
000005b0: 010f ed57 400f d1bf 702c 18e4 13aa 76bf
000005c0: a758 284f b933 c3bf 74de 3006 54d6 b03f
000005d0: e045 0540 9c5b a8bf 41ea c43d 2106 bebf
000005e0: 3c7c b832 2420 e4bf 15fe cad8 67a3 d4bf
000005f0: 9482 94fd 57c3 ca3f 726d 1527 0367 bf3f
00000600: a7b0 465b 91b1 debf db2b 91df 0246 d13f
00000610: 742f ec3e 3616 d83f f04a 0537 2664 dbbf
00000620: 3038 9147 51b2 a23f d4fa 2892 e8be b2bf
00000630: e442 b313 3442 b73f a257 bd20 2250 b93f
00000640: 65aa 13c6 9322 e3bf 77e1 41fc 761b c0bf
00000650: acf7 bcf4 8a44 cd3f 7f07 602a b46a e43f
00000660: 8027 65a6 1be9 6dbf 223b 7fcf 99f1 ddbf
00000670: 6afa c757 a153 adbf 8811 382e 5e6d c53f
00000680: ae67 7c25 3773 edbf 2141 ed6b 81ee cabf
00000690: 7988 ac39 f8c6 d8bf 25be 84d8 836f b3bf
000006a0: 2235 fa0c 0d92 e73f 6860 46d1 9275 d43f
000006b0: 102f 8c46 7e14 c83f 50f9 e511 fd7f e1bf
000006c0: 0849 0798 54f7 aabf 576b 84ef ee26 a3bf
000006d0: 40c1 f5c9 b1b0 81bf fb7b edd6 481e d83f
000006e0: 1906 dbec 4e49 d13f f25b f242 530c d2bf
000006f0: 2094 00b3 4862 b03f 5dc6 a32f 237d d23f
00000700: 8c52 e20f ca32 c9bf 3a9c 9ab3 f68d b63f
00000710: 2cb0 3575 0d6f cbbf 9e7e 33bd ce7f e3bf
00000720: d56d 5e38 9d86 df3f 0084 662c 293a 37bf
00000730: 8d39 e494 c450 babf 28b8 8f9b c2dc c43f
00000740: b2d0 a57b bfdd e1bf 5587 b369 ddda 98bf
00000750: a382 e835 d190 cc3f 823a 4ea6 811c a73f
00000760: 0cfb 63b7 c856 e1bf 551a ab29 d125 c73f
00000770: 1620 0a6b 6182 d8bf 7c0e fec5 7c7a d4bf
00000780: 5ec6 06b7 6101 ae3f 7c38 d8fc 0283 d9bf
00000790: aec5 b6e8 76e6 e2bf ca58 19d0 a52b dbbf
000007a0: cc35 90b1 1e5c c3bf 3a24 c7c4 cf28 d6bf
000007b0: 2137 c4bb 3ddc e63f 3ecb 5ad2 7280 a0bf
000007c0: 9ac3 16ca e262 d73f dc88 affe 3e39 d93f
000007d0: 62d9 b4ab 7281 94bf b265 bf87 bf3b c93f
000007e0: 6015 d7fa cdd9 b33f 2a25 5d55 352b edbf
000007f0: 48af f853 56d2 adbf 5b37 bb66 afc2 dcbf
