es_outputs/nn_from_s3/checkpoint_00200/top_k_models/rank_4_weights.npy (npy, 167552 bytes, 1 tensors)

array f8 [20928]
0.04378156813704148 -0.9931812107425022 0.3766260144641028 0.031539217131001406 -0.07107829264622333 -0.15180333735258236 -0.09517110250273686 0.06338437232074663
0.027512508762801147 0.030938193039199563 -0.18963863647084322 0.23766162931299448 -0.5451239280493098 -0.7193344709413529 1.0344517608390784 -0.5195068125847904
0.03430012133858962 -0.09288915386333763 0.03600538507188622 -0.07374050594722492 -0.41757569957343843 -0.4249404821837762 -0.681414352966511 -0.3909575402076422
-0.01740639042236175 -0.037874232528615326 -0.7199670652753007 0.41326860276125665 0.020787499832925327 0.8872325282657568 0.028884521840746136 0.3011808369247323
0.07424971621654225 0.559713980636349 0.4669244439243116 0.8394878369591448 0.47729718476233973 -0.06955005381692744 -0.5269426639613051 0.11292034124987259
-0.20646374465666 0.7148052094783504 -0.11252058825609323 0.0799259908826846 -0.04493958029590786 -0.6266068838819938 0.5117018797755333 -0.25256394861238113
0.05912409097800597 0.2445211440145356 -0.22125436658870495 0.10744995931905456 -0.22407530151470886 0.214577790926316 0.15298780054031444 0.3272210575249943
-0.08842016640354979 0.1502417853100987 0.3215296942590319 0.437635491528251 -0.40351766845650416 -0.3042118297212419 0.2452374492140501 0.18710219642533993
-0.37977998679453034 0.12171435353764642 -0.3502183287577424 -0.6307197275590154 0.5525760512996518 0.7628388913603839 -0.46591821505913633 -0.061539650845321675
-0.6009064125003132 0.7982829604636339 0.3185783519575352 0.7594554049259293 -0.36471057290396197 0.7664060861878068 0.05741110870193683 -0.4448806902282701
-0.07238875424906141 0.23780746199976968 -0.06037406135293254 -0.31235583148729484 -0.040123038075643686 0.9616828383006772 -0.5507874324552121 0.9534849298602982
0.374945031890047 -0.2523881405768942 0.2667982229447667 0.32183842609381513 0.23887344086532236 0.4510822432828792 -0.09466971150929698 0.042414860590074654
-0.28932458010771284 -0.6645957239142402 0.6006312905706803 -0.4469857945103358 -0.4195225572088811 0.9239823253558276 -0.9044829545876744 0.25947296821519783
0.3350927787294242 0.3393765698099941 -0.3177607688879079 0.10815056259037206 0.2445264578290362 -0.26418690063469374 -0.49172363641130046 -0.15414431116046706
-0.29391742787873043 -1.0148702311653506 0.16075294166277376 -0.8207529266104869 -0.06741297321977274 0.1903787919339573 0.006862168287468662 -0.9407101379152376
-0.6907584798804665 -0.2868310131444893 0.6152849338826125 -0.23234566699221507 0.08514394809001968 -0.382249131071607 -0.22304310671699648 -0.3613847174234489
-0.08963872551839247 -0.20557101975601877 -0.341548726518579 0.18935212412924796 -0.1120196960251662 0.24825193249122693 0.42861674029027247 0.16183301056204658
-0.1403839447255354 -0.4421196305839015 0.09887954956605452 0.27285392894034166 -0.47341204962436007 -0.4714553185775917 -0.33581662495196907 -0.06252586686684042
-0.21964253135071587 0.03348087109770656 0.01662727350473879 -0.6910029818570902 0.13027412839190056 -0.061074605423363376 -0.07759868658716115 0.3676406364183491
0.20588922896092984 0.6926738175561333 0.5543703244724034 -0.24831744941085399 0.0291970124425681 0.04710935843507324 0.6756577086271086 -0.17944842731861207
0.4754633713961737 0.46158157137455835 -0.5770856952084604 0.18735282101574513 0.12094228470165069 0.47871535994743475 0.2226997733136167 0.0963964990422136
-0.7080296152185247 -0.0002323881854628812 -0.07351856841531149 0.055822562258863166 -0.011061827962945414 0.08180288487526771 -0.016210836573677223 -0.38655521318825586
0.01547441791518682 0.43295823500963576 -0.38167433880133483 0.033339398858713606 0.451479585860249 0.20360971352729523 0.03076878566941557 -0.07722983210260595
-0.5970028279571691 -0.5303192457516248 0.3662555084388539 0.09194010132161025 -0.1101400094936268 -0.9244925328333233 -0.010213162058515055 0.01762187383353391
0.05090631964174446 0.987369709698109 0.6035163180459319 -0.1899636817955475 0.06553281673262945 0.1650056730544998 -0.037339563891097494 -0.27682529302985753
-0.33847860416298536 0.14522354564406803 0.5382079511774064 0.3549048047127805 0.12975266246086303 -0.36107866315613624 0.21558287785127922 0.3518261165364509
-0.7574070905060265 -0.4721518571881212 -0.030683430791665856 0.21604702158112934 0.5629450746173692 -0.05276951326867857 0.33082089089998 -0.44113969673538533
-0.08420638636891459 0.046325334080102296 0.6951320233942188 1.0081605647000615 0.48880149999363254 -0.28597721636962325 -0.30959438418580004 0.4965198492084739
0.06556632848967689 0.42690996467384335 -0.825204420606749 -0.7260200048426606 0.3824989999668537 -0.46548384439817997 -0.1362428270891927 -0.0702384356541999
0.02447642318206511 0.01944333765268969 -0.27274841864318533 -0.3214524502281064 -0.7914832143832691 0.5346005048449195 -0.3012935423421325 -0.5501823495121722
0.10313279663491506 -0.22882852014601873 -0.7402010538934651 -0.5186940668081691 -0.3635615455609547 -0.23968909293987029 0.4823018425950988 0.25158443941935227
0.1608264298096948 0.202112574790506 -0.020519105070615627 0.08217325497985739 0.648685478948157 -0.35891375388295327 0.39116491685700716 0.13421860111326422
00000000: 80e3 a1a6 896a a63f de80 64f6 23c8 efbf
00000010: a28d bcff a31a d83f e3f9 3c84 e825 a03f
00000020: e7fc 5ede 2f32 b2bf fd2e adb0 4a6e c3bf
00000030: 5005 c624 225d b8bf b5f1 314e f539 b03f
00000040: b0f4 7735 3d2c 9c3f e8e9 33fd 42ae 9f3f
00000050: 94a3 d92e 1446 c8bf d7e9 b43e b26b ce3f
00000060: 99a4 67bc a771 e1bf ac83 72b9 c904 e7bf
00000070: cb7e 214a 1d8d f03f 603a 43c0 cc9f e0bf
00000080: 60d0 cb16 c98f a13f 8003 ff65 95c7 b7bf
00000090: c02e ba3e 4c6f a23f 200f 6f65 a8e0 b2bf
000000a0: 5e6c 516d 8fb9 dabf 5673 6e90 3932 dbbf
000000b0: 6d84 2079 25ce e5bf 5c40 54c6 7205 d9bf
000000c0: 70fb 6b16 fbd2 91bf f09b 245c 4064 a3bf
000000d0: 94be f15e f809 e7bf 84af 5427 fe72 da3f
000000e0: b0c5 ca7f 5149 953f 8b29 9b78 3564 ec3f
000000f0: d099 aa72 e793 9d3f 3a83 31fd 8b46 d33f
00000100: 0c28 e386 0702 b33f 9d4e 3e4b 2de9 e13f
00000110: e7e7 1610 17e2 dd3f 4823 a498 15dd ea3f
00000120: 50bc c17d 098c de3f 8628 9446 08ce b1bf
00000130: ec96 92dc b6dc e0bf 37ab b8f4 58e8 bc3f
00000140: 1a16 8e6b 676d cabf c809 b72c afdf e63f
00000150: 28c5 af36 26ce bcbf c007 f19c 0776 b43f
00000160: a472 5517 5202 a7bf 9e17 37e1 290d e4bf
00000170: 2401 de9e dc5f e03f 5315 dcfa 012a d0bf
00000180: e001 504a 8345 ae3f 2f89 5c06 784c cf3f
00000190: 563f 4c26 1052 ccbf d15b 3b2d d781 bb3f
000001a0: f36a ecdd 7fae ccbf 67fc 3cf9 4877 cb3f
000001b0: bff9 00b0 1a95 c33f 0079 2897 30f1 d43f
000001c0: 8197 023b b4a2 b6bf b523 3371 1f3b c33f
000001d0: 5644 6248 f193 d43f bcb1 eb4a 3802 dc3f
000001e0: 2e3f 58c5 3bd3 d9bf 2761 ede4 3478 d3bf
000001f0: b87c 10d4 f063 cf3f 920b 54fb f6f2 c73f
00000200: eb4c bdb7 504e d8bf 94e1 e5ff ab28 bf3f
00000210: 9a5a 1e23 fa69 d6bf 25db 5923 db2e e4bf
00000220: 7850 9cf8 b3ae e13f d64f 501b 2d69 e83f
00000230: 348a 12a2 9ad1 ddbf a469 9307 2082 afbf
00000240: 30a8 b415 a03a e3bf dca6 04b5 888b e93f
00000250: 99c1 b774 9663 d43f 79ac dd6b 754d e83f
00000260: 2d30 c803 6b57 d7bf 3e39 740e 6686 e83f
00000270: 3895 9a24 fd64 ad3f b9bf c9db ec78 dcbf
00000280: f60f 19c4 1188 b2bf b152 0494 7970 ce3f
00000290: ce38 1356 59e9 aebf fafa 3c50 a3fd d3bf
000002a0: 24bd b3c0 018b a4bf 1607 7416 1bc6 ee3f
000002b0: 9b2c 2ef7 0ca0 e1bf 9d52 dfd3 f282 ee3f
000002c0: cafc 7072 19ff d73f c443 6b96 2027 d0bf
000002d0: a76f 8bda 3813 d13f b3d1 aa32 0099 d43f
000002e0: 7024 33a8 6793 ce3f b933 ad0e 88de dc3f
000002f0: e4ab da32 463c b8bf f891 328e 66b7 a53f
00000300: b375 5f3e 4b84 d2bf 4abd 6840 5e44 e5bf
00000310: 3092 be1c 5f38 e33f b6b3 4c4e 6a9b dcbf
00000320: 2a5f c923 75d9 dabf ab87 af61 4391 ed3f
00000330: dfca b73c 86f1 ecbf 668a 2b82 349b d03f
00000340: 6c31 71fb 2872 d53f 9a34 1781 58b8 d53f
00000350: 01d3 9443 3156 d4bf 52a1 5e59 c1af bb3f
00000360: 96f3 b099 a44c cf3f b47c 902c 70e8 d0bf
00000370: 78a1 436a 6678 dfbf 4a3a a633 00bb c3bf
00000380: 64ab 1d0b 8bcf d2bf 52a0 4891 e83c f0bf
00000390: 58b5 9669 8d93 c43f 326d 3ca4 9b43 eabf
000003a0: 9c17 4e03 fa41 b1bf baaa 9a0e 555e c83f
000003b0: 803d fd45 811b 7c3f 3092 ab25 4c1a eebf
000003c0: 4eae 1087 b11a e6bf bfc8 3b77 705b d2bf
000003d0: 3cea 9707 6ab0 e33f c9a7 8cb8 80bd cdbf
000003e0: 98bb 7f68 fecb b53f 4520 380f c576 d8bf
000003f0: 794f 7930 ad8c ccbf 12e8 a65d ed20 d7bf
00000400: 687e 8e42 90f2 b6bf 98c1 6db3 2650 cabf
00000410: cfd0 9830 efdb d5bf a818 48be b03c c83f
00000420: 6c9a efa2 52ad bcbf b9fb 9b25 b8c6 cf3f
00000430: 6f26 84e8 746e db3f b47b e3af f1b6 c43f
00000440: 0c65 bde1 19f8 c1bf e1c1 9122 b04b dcbf
00000450: 5a21 a18f 2b50 b93f 6a91 5853 7076 d13f
00000460: 2bd0 aa0d 624c debf a239 b4ed 522c debf
00000470: a6cb 6703 057e d5bf 7cdd 58f9 b101 b0bf
00000480: 2422 7b18 3f1d ccbf dcfe cf9c 6724 a13f
00000490: 3cb0 b26f bd06 913f 4a78 1049 b21c e6bf
000004a0: 9ca3 7a98 d2ac c03f 6ca3 d1b1 2b45 afbf
000004b0: aeba 1aed 81dd b3bf 643c 8697 6c87 d73f
000004c0: 5330 7e08 945a ca3f ba5e 2648 622a e63f
000004d0: 926b afd5 66bd e13f d074 1fbe ddc8 cfbf
000004e0: 5cb2 5356 d2e5 9d3f 5fdc a0c3 b71e a83f
000004f0: d3ff 3aea fc9e e53f 1777 5383 2af8 c6bf
00000500: feea a5eb fd6d de3f 745c 5f6e 8d8a dd3f
00000510: c41c 7d6b 7c77 e2bf 48b9 895f 2dfb c73f
00000520: a842 7fd5 12f6 be3f 604b c4bf 45a3 de3f
00000530: 51b3 9a19 6d81 cc3f d9cf d5e2 70ad b83f
00000540: 1fd1 3eb9 2da8 e6bf 00fe 2550 a775 2ebf
00000550: 9214 fee6 1cd2 b2bf 4fbd 8f5e c694 ac3f
00000560: c0ba ad6a 95a7 86bf 74fa 41ab 08f1 b43f
00000570: 30f0 b2d3 9299 90bf bf7a af13 52bd d8bf
00000580: 5881 f636 0db1 8f3f fd9d f974 96b5 db3f
00000590: 30f2 b734 5a6d d8bf 5e6f 8897 dc11 a13f
000005a0: 8d35 05a2 0ae5 dc3f 62b3 5f12 e20f ca3f
000005b0: a847 c040 da81 9f3f e200 2893 55c5 b3bf
000005c0: fe41 b6ac a51a e3bf e829 1e11 60f8 e0bf
000005d0: f861 aef1 ba70 d73f 9903 5ef0 6289 b73f
000005e0: 099a c1ba 2232 bcbf 624a 3d5d 7195 edbf
000005f0: 7295 3d68 a3ea 84bf 4db0 3cef 770b 923f
00000600: 77c2 0aa4 6410 aa3f 4ddc 865c 8898 ef3f
00000610: f181 1374 0150 e33f 1aac 5edc ba50 c8bf
00000620: 9070 ae38 c2c6 b03f ba36 b6e8 e71e c53f
00000630: 70b1 84db 2b1e a3bf eb34 116f 81b7 d1bf
00000640: eaa5 d129 a2a9 d5bf 7841 9365 af96 c23f
00000650: cb21 98e1 ff38 e13f 74d1 5ba4 c2b6 d63f
00000660: 844e eb38 bc9b c03f 107f 62ae e91b d7bf
00000670: 8272 f940 3898 cb3f 84c6 19b0 5184 d63f
00000680: b16b 6fcb ad3c e8bf d997 576c bc37 debf
00000690: b0fc 1d2f 7a6b 9fbf 7d69 0bc6 6da7 cb3f
000006a0: d0a0 9d63 a503 e23f e8fb 6d0b 9b04 abbf
000006b0: 96ef cf62 2b2c d53f 9c88 9cfe a13b dcbf
000006c0: bc9e 91bb 8c8e b5bf 4e5c b345 f4b7 a73f
000006d0: dd2c 5c83 853e e63f fa0e e8f8 6c21 f03f
000006e0: 5c56 2d16 8648 df3f 7c5a ed61 734d d2bf
000006f0: fd9b c6f6 64d0 d3bf 6893 8a30 fbc6 df3f
00000700: 06fb 9474 f4c8 b03f 4215 272c 7e52 db3f
00000710: e2a8 e019 1368 eabf c84f 214e 8e3b e7bf
00000720: d70f e715 dd7a d83f 156b 20c0 7cca ddbf
00000730: 39d2 54ab 6770 c1bf d496 0e68 25fb b1bf
00000740: c02f 5cf4 5810 993f 01a1 5f4d f4e8 933f
00000750: b6ec 86c8 b574 d1bf e4b8 3c4c ad92 d4bf
00000760: ba7d 239b d453 e9bf 157d 9784 721b e13f
00000770: b3bf b6b5 6448 d3bf 15b8 bf03 189b e1bf
00000780: 8a25 b134 e966 ba3f 40a9 35c1 404a cdbf
00000790: 44fd dd1e baaf e7bf 1b40 b24c 2499 e0bf
000007a0: f51e 11a5 9744 d7bf 203c b1d7 21ae cebf
000007b0: 7ac6 2f8c 08de de3f 6845 df9e f519 d03f
000007c0: e6ba 2ee0 f595 c43f 33f4 6a29 d3de c93f
000007d0: 26cc e2d4 f502 95bf 288e be72 4e09 b53f
000007e0: 271e af0c 08c2 e43f 99c2 c064 71f8 d6bf
000007f0: f293 4f93 d808 d93f 70ee 253b 132e c13f
